Data Distribution For Training Phase
Images 812
Masks 812
Data Distribution For Validation Phase
Images 91
Masks 91
Feature info [{'num_chs': 64, 'reduction': 2, 'module': 'stem'}, {'num_chs': 128, 'reduction': 4, 'module': 'stage1'}, {'num_chs': 256, 'reduction': 8, 'module': 'stage2'}, {'num_chs': 512, 'reduction': 16, 'module': 'stage3'}, {'num_chs': 1024, 'reduction': 32, 'module': 'stage4'}]
Model UnetPlusPlus(
  (encoder): HighResolutionNetFeatures(
    (conv1): Conv2d(3, 64, kernel_size=(3, 3), stride=(2, 2), padding=(1, 1), bias=False)
    (bn1): BatchNorm2d(64, eps=1e-05, momentum=0.1, affine=True, track_running_stats=True)
    (act1): ReLU(inplace=True)
    (conv2): Conv2d(64, 64, kernel_size=(3, 3), stride=(2, 2), padding=(1, 1), bias=False)
    (bn2): BatchNorm2d(64, eps=1e-05, momentum=0.1, affine=True, track_running_stats=True)
    (act2): ReLU(inplace=True)
    (layer1): Sequential(
      (0): Bottleneck(
        (conv1): Conv2d(64, 64, kernel_size=(1, 1), stride=(1, 1), bias=False)
        (bn1): InstanceNorm2d(64, eps=1e-05, momentum=0.1, affine=False, track_running_stats=False)
        (act1): GELU(approximate='none')
        (conv2): Conv2d(64, 64, kernel_size=(3, 3), stride=(1, 1), padding=(1, 1), bias=False)
        (bn2): InstanceNorm2d(64, eps=1e-05, momentum=0.1, affine=False, track_running_stats=False)
        (drop_block): Identity()
        (act2): GELU(approximate='none')
        (aa): Identity()
        (conv3): Conv2d(64, 256, kernel_size=(1, 1), stride=(1, 1), bias=False)
        (bn3): InstanceNorm2d(256, eps=1e-05, momentum=0.1, affine=False, track_running_stats=False)
        (act3): GELU(approximate='none')
        (downsample): Sequential(
          (0): Conv2d(64, 256, kernel_size=(1, 1), stride=(1, 1), bias=False)
          (1): BatchNorm2d(256, eps=1e-05, momentum=0.1, affine=True, track_running_stats=True)
        )
        (cbam): CBAM(
          (channel_attention): Channel_Attention(
            (shared_mlp): Sequential(
              (0): Flatten(start_dim=1, end_dim=-1)
              (1): Linear(in_features=256, out_features=16, bias=True)
              (2): ReLU(inplace=True)
              (3): Linear(in_features=16, out_features=256, bias=True)
            )
          )
          (spatial_attention): Spatial_Attention(
            (compress): ChannelPool()
            (spatial_attention): Sequential(
              (0): Conv2d(2, 1, kernel_size=(7, 7), stride=(1, 1), padding=(3, 3), bias=False)
              (1): BatchNorm2d(1, eps=1e-05, momentum=0.01, affine=True, track_running_stats=True)
            )
          )
        )
      )
      (1): Bottleneck(
        (conv1): Conv2d(256, 64, kernel_size=(1, 1), stride=(1, 1), bias=False)
        (bn1): InstanceNorm2d(64, eps=1e-05, momentum=0.1, affine=False, track_running_stats=False)
        (act1): GELU(approximate='none')
        (conv2): Conv2d(64, 64, kernel_size=(3, 3), stride=(1, 1), padding=(1, 1), bias=False)
        (bn2): InstanceNorm2d(64, eps=1e-05, momentum=0.1, affine=False, track_running_stats=False)
        (drop_block): Identity()
        (act2): GELU(approximate='none')
        (aa): Identity()
        (conv3): Conv2d(64, 256, kernel_size=(1, 1), stride=(1, 1), bias=False)
        (bn3): InstanceNorm2d(256, eps=1e-05, momentum=0.1, affine=False, track_running_stats=False)
        (act3): GELU(approximate='none')
        (cbam): CBAM(
          (channel_attention): Channel_Attention(
            (shared_mlp): Sequential(
              (0): Flatten(start_dim=1, end_dim=-1)
              (1): Linear(in_features=256, out_features=16, bias=True)
              (2): ReLU(inplace=True)
              (3): Linear(in_features=16, out_features=256, bias=True)
            )
          )
          (spatial_attention): Spatial_Attention(
            (compress): ChannelPool()
            (spatial_attention): Sequential(
              (0): Conv2d(2, 1, kernel_size=(7, 7), stride=(1, 1), padding=(3, 3), bias=False)
              (1): BatchNorm2d(1, eps=1e-05, momentum=0.01, affine=True, track_running_stats=True)
            )
          )
        )
      )
      (2): Bottleneck(
        (conv1): Conv2d(256, 64, kernel_size=(1, 1), stride=(1, 1), bias=False)
        (bn1): InstanceNorm2d(64, eps=1e-05, momentum=0.1, affine=False, track_running_stats=False)
        (act1): GELU(approximate='none')
        (conv2): Conv2d(64, 64, kernel_size=(3, 3), stride=(1, 1), padding=(1, 1), bias=False)
        (bn2): InstanceNorm2d(64, eps=1e-05, momentum=0.1, affine=False, track_running_stats=False)
        (drop_block): Identity()
        (act2): GELU(approximate='none')
        (aa): Identity()
        (conv3): Conv2d(64, 256, kernel_size=(1, 1), stride=(1, 1), bias=False)
        (bn3): InstanceNorm2d(256, eps=1e-05, momentum=0.1, affine=False, track_running_stats=False)
        (act3): GELU(approximate='none')
        (cbam): CBAM(
          (channel_attention): Channel_Attention(
            (shared_mlp): Sequential(
              (0): Flatten(start_dim=1, end_dim=-1)
              (1): Linear(in_features=256, out_features=16, bias=True)
              (2): ReLU(inplace=True)
              (3): Linear(in_features=16, out_features=256, bias=True)
            )
          )
          (spatial_attention): Spatial_Attention(
            (compress): ChannelPool()
            (spatial_attention): Sequential(
              (0): Conv2d(2, 1, kernel_size=(7, 7), stride=(1, 1), padding=(3, 3), bias=False)
              (1): BatchNorm2d(1, eps=1e-05, momentum=0.01, affine=True, track_running_stats=True)
            )
          )
        )
      )
      (3): Bottleneck(
        (conv1): Conv2d(256, 64, kernel_size=(1, 1), stride=(1, 1), bias=False)
        (bn1): InstanceNorm2d(64, eps=1e-05, momentum=0.1, affine=False, track_running_stats=False)
        (act1): GELU(approximate='none')
        (conv2): Conv2d(64, 64, kernel_size=(3, 3), stride=(1, 1), padding=(1, 1), bias=False)
        (bn2): InstanceNorm2d(64, eps=1e-05, momentum=0.1, affine=False, track_running_stats=False)
        (drop_block): Identity()
        (act2): GELU(approximate='none')
        (aa): Identity()
        (conv3): Conv2d(64, 256, kernel_size=(1, 1), stride=(1, 1), bias=False)
        (bn3): InstanceNorm2d(256, eps=1e-05, momentum=0.1, affine=False, track_running_stats=False)
        (act3): GELU(approximate='none')
        (cbam): CBAM(
          (channel_attention): Channel_Attention(
            (shared_mlp): Sequential(
              (0): Flatten(start_dim=1, end_dim=-1)
              (1): Linear(in_features=256, out_features=16, bias=True)
              (2): ReLU(inplace=True)
              (3): Linear(in_features=16, out_features=256, bias=True)
            )
          )
          (spatial_attention): Spatial_Attention(
            (compress): ChannelPool()
            (spatial_attention): Sequential(
              (0): Conv2d(2, 1, kernel_size=(7, 7), stride=(1, 1), padding=(3, 3), bias=False)
              (1): BatchNorm2d(1, eps=1e-05, momentum=0.01, affine=True, track_running_stats=True)
            )
          )
        )
      )
    )
    (transition1): ModuleList(
      (0): Sequential(
        (0): Conv2d(256, 64, kernel_size=(3, 3), stride=(1, 1), padding=(1, 1), bias=False)
        (1): BatchNorm2d(64, eps=1e-05, momentum=0.1, affine=True, track_running_stats=True)
        (2): ReLU(inplace=True)
      )
      (1): Sequential(
        (0): Sequential(
          (0): Conv2d(256, 128, kernel_size=(3, 3), stride=(2, 2), padding=(1, 1), bias=False)
          (1): BatchNorm2d(128, eps=1e-05, momentum=0.1, affine=True, track_running_stats=True)
          (2): ReLU(inplace=True)
        )
      )
    )
    (stage2): Sequential(
      (0): HighResolutionModule(
        (branches): ModuleList(
          (0): Sequential(
            (0): BasicBlock(
              (conv1): Conv2d(64, 64, kernel_size=(3, 3), stride=(1, 1), padding=(1, 1), bias=False)
              (bn1): InstanceNorm2d(64, eps=1e-05, momentum=0.1, affine=False, track_running_stats=False)
              (drop_block): Identity()
              (act1): GELU(approximate='none')
              (aa): Identity()
              (conv2): Conv2d(64, 64, kernel_size=(3, 3), stride=(1, 1), padding=(1, 1), bias=False)
              (bn2): InstanceNorm2d(64, eps=1e-05, momentum=0.1, affine=False, track_running_stats=False)
              (act2): GELU(approximate='none')
              (cbam): CBAM(
                (channel_attention): Channel_Attention(
                  (shared_mlp): Sequential(
                    (0): Flatten(start_dim=1, end_dim=-1)
                    (1): Linear(in_features=64, out_features=4, bias=True)
                    (2): ReLU(inplace=True)
                    (3): Linear(in_features=4, out_features=64, bias=True)
                  )
                )
                (spatial_attention): Spatial_Attention(
                  (compress): ChannelPool()
                  (spatial_attention): Sequential(
                    (0): Conv2d(2, 1, kernel_size=(7, 7), stride=(1, 1), padding=(3, 3), bias=False)
                    (1): BatchNorm2d(1, eps=1e-05, momentum=0.01, affine=True, track_running_stats=True)
                  )
                )
              )
            )
            (1): BasicBlock(
              (conv1): Conv2d(64, 64, kernel_size=(3, 3), stride=(1, 1), padding=(1, 1), bias=False)
              (bn1): InstanceNorm2d(64, eps=1e-05, momentum=0.1, affine=False, track_running_stats=False)
              (drop_block): Identity()
              (act1): GELU(approximate='none')
              (aa): Identity()
              (conv2): Conv2d(64, 64, kernel_size=(3, 3), stride=(1, 1), padding=(1, 1), bias=False)
              (bn2): InstanceNorm2d(64, eps=1e-05, momentum=0.1, affine=False, track_running_stats=False)
              (act2): GELU(approximate='none')
              (cbam): CBAM(
                (channel_attention): Channel_Attention(
                  (shared_mlp): Sequential(
                    (0): Flatten(start_dim=1, end_dim=-1)
                    (1): Linear(in_features=64, out_features=4, bias=True)
                    (2): ReLU(inplace=True)
                    (3): Linear(in_features=4, out_features=64, bias=True)
                  )
                )
                (spatial_attention): Spatial_Attention(
                  (compress): ChannelPool()
                  (spatial_attention): Sequential(
                    (0): Conv2d(2, 1, kernel_size=(7, 7), stride=(1, 1), padding=(3, 3), bias=False)
                    (1): BatchNorm2d(1, eps=1e-05, momentum=0.01, affine=True, track_running_stats=True)
                  )
                )
              )
            )
            (2): BasicBlock(
              (conv1): Conv2d(64, 64, kernel_size=(3, 3), stride=(1, 1), padding=(1, 1), bias=False)
              (bn1): InstanceNorm2d(64, eps=1e-05, momentum=0.1, affine=False, track_running_stats=False)
              (drop_block): Identity()
              (act1): GELU(approximate='none')
              (aa): Identity()
              (conv2): Conv2d(64, 64, kernel_size=(3, 3), stride=(1, 1), padding=(1, 1), bias=False)
              (bn2): InstanceNorm2d(64, eps=1e-05, momentum=0.1, affine=False, track_running_stats=False)
              (act2): GELU(approximate='none')
              (cbam): CBAM(
                (channel_attention): Channel_Attention(
                  (shared_mlp): Sequential(
                    (0): Flatten(start_dim=1, end_dim=-1)
                    (1): Linear(in_features=64, out_features=4, bias=True)
                    (2): ReLU(inplace=True)
                    (3): Linear(in_features=4, out_features=64, bias=True)
                  )
                )
                (spatial_attention): Spatial_Attention(
                  (compress): ChannelPool()
                  (spatial_attention): Sequential(
                    (0): Conv2d(2, 1, kernel_size=(7, 7), stride=(1, 1), padding=(3, 3), bias=False)
                    (1): BatchNorm2d(1, eps=1e-05, momentum=0.01, affine=True, track_running_stats=True)
                  )
                )
              )
            )
            (3): BasicBlock(
              (conv1): Conv2d(64, 64, kernel_size=(3, 3), stride=(1, 1), padding=(1, 1), bias=False)
              (bn1): InstanceNorm2d(64, eps=1e-05, momentum=0.1, affine=False, track_running_stats=False)
              (drop_block): Identity()
              (act1): GELU(approximate='none')
              (aa): Identity()
              (conv2): Conv2d(64, 64, kernel_size=(3, 3), stride=(1, 1), padding=(1, 1), bias=False)
              (bn2): InstanceNorm2d(64, eps=1e-05, momentum=0.1, affine=False, track_running_stats=False)
              (act2): GELU(approximate='none')
              (cbam): CBAM(
                (channel_attention): Channel_Attention(
                  (shared_mlp): Sequential(
                    (0): Flatten(start_dim=1, end_dim=-1)
                    (1): Linear(in_features=64, out_features=4, bias=True)
                    (2): ReLU(inplace=True)
                    (3): Linear(in_features=4, out_features=64, bias=True)
                  )
                )
                (spatial_attention): Spatial_Attention(
                  (compress): ChannelPool()
                  (spatial_attention): Sequential(
                    (0): Conv2d(2, 1, kernel_size=(7, 7), stride=(1, 1), padding=(3, 3), bias=False)
                    (1): BatchNorm2d(1, eps=1e-05, momentum=0.01, affine=True, track_running_stats=True)
                  )
                )
              )
            )
          )
          (1): Sequential(
            (0): BasicBlock(
              (conv1): Conv2d(128, 128, kernel_size=(3, 3), stride=(1, 1), padding=(1, 1), bias=False)
              (bn1): InstanceNorm2d(128, eps=1e-05, momentum=0.1, affine=False, track_running_stats=False)
              (drop_block): Identity()
              (act1): GELU(approximate='none')
              (aa): Identity()
              (conv2): Conv2d(128, 128, kernel_size=(3, 3), stride=(1, 1), padding=(1, 1), bias=False)
              (bn2): InstanceNorm2d(128, eps=1e-05, momentum=0.1, affine=False, track_running_stats=False)
              (act2): GELU(approximate='none')
              (cbam): CBAM(
                (channel_attention): Channel_Attention(
                  (shared_mlp): Sequential(
                    (0): Flatten(start_dim=1, end_dim=-1)
                    (1): Linear(in_features=128, out_features=8, bias=True)
                    (2): ReLU(inplace=True)
                    (3): Linear(in_features=8, out_features=128, bias=True)
                  )
                )
                (spatial_attention): Spatial_Attention(
                  (compress): ChannelPool()
                  (spatial_attention): Sequential(
                    (0): Conv2d(2, 1, kernel_size=(7, 7), stride=(1, 1), padding=(3, 3), bias=False)
                    (1): BatchNorm2d(1, eps=1e-05, momentum=0.01, affine=True, track_running_stats=True)
                  )
                )
              )
            )
            (1): BasicBlock(
              (conv1): Conv2d(128, 128, kernel_size=(3, 3), stride=(1, 1), padding=(1, 1), bias=False)
              (bn1): InstanceNorm2d(128, eps=1e-05, momentum=0.1, affine=False, track_running_stats=False)
              (drop_block): Identity()
              (act1): GELU(approximate='none')
              (aa): Identity()
              (conv2): Conv2d(128, 128, kernel_size=(3, 3), stride=(1, 1), padding=(1, 1), bias=False)
              (bn2): InstanceNorm2d(128, eps=1e-05, momentum=0.1, affine=False, track_running_stats=False)
              (act2): GELU(approximate='none')
              (cbam): CBAM(
                (channel_attention): Channel_Attention(
                  (shared_mlp): Sequential(
                    (0): Flatten(start_dim=1, end_dim=-1)
                    (1): Linear(in_features=128, out_features=8, bias=True)
                    (2): ReLU(inplace=True)
                    (3): Linear(in_features=8, out_features=128, bias=True)
                  )
                )
                (spatial_attention): Spatial_Attention(
                  (compress): ChannelPool()
                  (spatial_attention): Sequential(
                    (0): Conv2d(2, 1, kernel_size=(7, 7), stride=(1, 1), padding=(3, 3), bias=False)
                    (1): BatchNorm2d(1, eps=1e-05, momentum=0.01, affine=True, track_running_stats=True)
                  )
                )
              )
            )
            (2): BasicBlock(
              (conv1): Conv2d(128, 128, kernel_size=(3, 3), stride=(1, 1), padding=(1, 1), bias=False)
              (bn1): InstanceNorm2d(128, eps=1e-05, momentum=0.1, affine=False, track_running_stats=False)
              (drop_block): Identity()
              (act1): GELU(approximate='none')
              (aa): Identity()
              (conv2): Conv2d(128, 128, kernel_size=(3, 3), stride=(1, 1), padding=(1, 1), bias=False)
              (bn2): InstanceNorm2d(128, eps=1e-05, momentum=0.1, affine=False, track_running_stats=False)
              (act2): GELU(approximate='none')
              (cbam): CBAM(
                (channel_attention): Channel_Attention(
                  (shared_mlp): Sequential(
                    (0): Flatten(start_dim=1, end_dim=-1)
                    (1): Linear(in_features=128, out_features=8, bias=True)
                    (2): ReLU(inplace=True)
                    (3): Linear(in_features=8, out_features=128, bias=True)
                  )
                )
                (spatial_attention): Spatial_Attention(
                  (compress): ChannelPool()
                  (spatial_attention): Sequential(
                    (0): Conv2d(2, 1, kernel_size=(7, 7), stride=(1, 1), padding=(3, 3), bias=False)
                    (1): BatchNorm2d(1, eps=1e-05, momentum=0.01, affine=True, track_running_stats=True)
                  )
                )
              )
            )
            (3): BasicBlock(
              (conv1): Conv2d(128, 128, kernel_size=(3, 3), stride=(1, 1), padding=(1, 1), bias=False)
              (bn1): InstanceNorm2d(128, eps=1e-05, momentum=0.1, affine=False, track_running_stats=False)
              (drop_block): Identity()
              (act1): GELU(approximate='none')
              (aa): Identity()
              (conv2): Conv2d(128, 128, kernel_size=(3, 3), stride=(1, 1), padding=(1, 1), bias=False)
              (bn2): InstanceNorm2d(128, eps=1e-05, momentum=0.1, affine=False, track_running_stats=False)
              (act2): GELU(approximate='none')
              (cbam): CBAM(
                (channel_attention): Channel_Attention(
                  (shared_mlp): Sequential(
                    (0): Flatten(start_dim=1, end_dim=-1)
                    (1): Linear(in_features=128, out_features=8, bias=True)
                    (2): ReLU(inplace=True)
                    (3): Linear(in_features=8, out_features=128, bias=True)
                  )
                )
                (spatial_attention): Spatial_Attention(
                  (compress): ChannelPool()
                  (spatial_attention): Sequential(
                    (0): Conv2d(2, 1, kernel_size=(7, 7), stride=(1, 1), padding=(3, 3), bias=False)
                    (1): BatchNorm2d(1, eps=1e-05, momentum=0.01, affine=True, track_running_stats=True)
                  )
                )
              )
            )
          )
        )
        (fuse_layers): ModuleList(
          (0): ModuleList(
            (0): Identity()
            (1): Sequential(
              (0): Conv2d(128, 64, kernel_size=(1, 1), stride=(1, 1), bias=False)
              (1): BatchNorm2d(64, eps=1e-05, momentum=0.1, affine=True, track_running_stats=True)
              (2): Upsample(scale_factor=2.0, mode=nearest)
            )
          )
          (1): ModuleList(
            (0): Sequential(
              (0): Sequential(
                (0): Conv2d(64, 128, kernel_size=(3, 3), stride=(2, 2), padding=(1, 1), bias=False)
                (1): BatchNorm2d(128, eps=1e-05, momentum=0.1, affine=True, track_running_stats=True)
              )
            )
            (1): Identity()
          )
        )
        (fuse_act): ReLU()
      )
    )
    (transition2): ModuleList(
      (0): Identity()
      (1): Identity()
      (2): Sequential(
        (0): Sequential(
          (0): Conv2d(128, 256, kernel_size=(3, 3), stride=(2, 2), padding=(1, 1), bias=False)
          (1): BatchNorm2d(256, eps=1e-05, momentum=0.1, affine=True, track_running_stats=True)
          (2): ReLU(inplace=True)
        )
      )
    )
    (stage3): Sequential(
      (0): HighResolutionModule(
        (branches): ModuleList(
          (0): Sequential(
            (0): BasicBlock(
              (conv1): Conv2d(64, 64, kernel_size=(3, 3), stride=(1, 1), padding=(1, 1), bias=False)
              (bn1): InstanceNorm2d(64, eps=1e-05, momentum=0.1, affine=False, track_running_stats=False)
              (drop_block): Identity()
              (act1): GELU(approximate='none')
              (aa): Identity()
              (conv2): Conv2d(64, 64, kernel_size=(3, 3), stride=(1, 1), padding=(1, 1), bias=False)
              (bn2): InstanceNorm2d(64, eps=1e-05, momentum=0.1, affine=False, track_running_stats=False)
              (act2): GELU(approximate='none')
              (cbam): CBAM(
                (channel_attention): Channel_Attention(
                  (shared_mlp): Sequential(
                    (0): Flatten(start_dim=1, end_dim=-1)
                    (1): Linear(in_features=64, out_features=4, bias=True)
                    (2): ReLU(inplace=True)
                    (3): Linear(in_features=4, out_features=64, bias=True)
                  )
                )
                (spatial_attention): Spatial_Attention(
                  (compress): ChannelPool()
                  (spatial_attention): Sequential(
                    (0): Conv2d(2, 1, kernel_size=(7, 7), stride=(1, 1), padding=(3, 3), bias=False)
                    (1): BatchNorm2d(1, eps=1e-05, momentum=0.01, affine=True, track_running_stats=True)
                  )
                )
              )
            )
            (1): BasicBlock(
              (conv1): Conv2d(64, 64, kernel_size=(3, 3), stride=(1, 1), padding=(1, 1), bias=False)
              (bn1): InstanceNorm2d(64, eps=1e-05, momentum=0.1, affine=False, track_running_stats=False)
              (drop_block): Identity()
              (act1): GELU(approximate='none')
              (aa): Identity()
              (conv2): Conv2d(64, 64, kernel_size=(3, 3), stride=(1, 1), padding=(1, 1), bias=False)
              (bn2): InstanceNorm2d(64, eps=1e-05, momentum=0.1, affine=False, track_running_stats=False)
              (act2): GELU(approximate='none')
              (cbam): CBAM(
                (channel_attention): Channel_Attention(
                  (shared_mlp): Sequential(
                    (0): Flatten(start_dim=1, end_dim=-1)
                    (1): Linear(in_features=64, out_features=4, bias=True)
                    (2): ReLU(inplace=True)
                    (3): Linear(in_features=4, out_features=64, bias=True)
                  )
                )
                (spatial_attention): Spatial_Attention(
                  (compress): ChannelPool()
                  (spatial_attention): Sequential(
                    (0): Conv2d(2, 1, kernel_size=(7, 7), stride=(1, 1), padding=(3, 3), bias=False)
                    (1): BatchNorm2d(1, eps=1e-05, momentum=0.01, affine=True, track_running_stats=True)
                  )
                )
              )
            )
            (2): BasicBlock(
              (conv1): Conv2d(64, 64, kernel_size=(3, 3), stride=(1, 1), padding=(1, 1), bias=False)
              (bn1): InstanceNorm2d(64, eps=1e-05, momentum=0.1, affine=False, track_running_stats=False)
              (drop_block): Identity()
              (act1): GELU(approximate='none')
              (aa): Identity()
              (conv2): Conv2d(64, 64, kernel_size=(3, 3), stride=(1, 1), padding=(1, 1), bias=False)
              (bn2): InstanceNorm2d(64, eps=1e-05, momentum=0.1, affine=False, track_running_stats=False)
              (act2): GELU(approximate='none')
              (cbam): CBAM(
                (channel_attention): Channel_Attention(
                  (shared_mlp): Sequential(
                    (0): Flatten(start_dim=1, end_dim=-1)
                    (1): Linear(in_features=64, out_features=4, bias=True)
                    (2): ReLU(inplace=True)
                    (3): Linear(in_features=4, out_features=64, bias=True)
                  )
                )
                (spatial_attention): Spatial_Attention(
                  (compress): ChannelPool()
                  (spatial_attention): Sequential(
                    (0): Conv2d(2, 1, kernel_size=(7, 7), stride=(1, 1), padding=(3, 3), bias=False)
                    (1): BatchNorm2d(1, eps=1e-05, momentum=0.01, affine=True, track_running_stats=True)
                  )
                )
              )
            )
            (3): BasicBlock(
              (conv1): Conv2d(64, 64, kernel_size=(3, 3), stride=(1, 1), padding=(1, 1), bias=False)
              (bn1): InstanceNorm2d(64, eps=1e-05, momentum=0.1, affine=False, track_running_stats=False)
              (drop_block): Identity()
              (act1): GELU(approximate='none')
              (aa): Identity()
              (conv2): Conv2d(64, 64, kernel_size=(3, 3), stride=(1, 1), padding=(1, 1), bias=False)
              (bn2): InstanceNorm2d(64, eps=1e-05, momentum=0.1, affine=False, track_running_stats=False)
              (act2): GELU(approximate='none')
              (cbam): CBAM(
                (channel_attention): Channel_Attention(
                  (shared_mlp): Sequential(
                    (0): Flatten(start_dim=1, end_dim=-1)
                    (1): Linear(in_features=64, out_features=4, bias=True)
                    (2): ReLU(inplace=True)
                    (3): Linear(in_features=4, out_features=64, bias=True)
                  )
                )
                (spatial_attention): Spatial_Attention(
                  (compress): ChannelPool()
                  (spatial_attention): Sequential(
                    (0): Conv2d(2, 1, kernel_size=(7, 7), stride=(1, 1), padding=(3, 3), bias=False)
                    (1): BatchNorm2d(1, eps=1e-05, momentum=0.01, affine=True, track_running_stats=True)
                  )
                )
              )
            )
          )
          (1): Sequential(
            (0): BasicBlock(
              (conv1): Conv2d(128, 128, kernel_size=(3, 3), stride=(1, 1), padding=(1, 1), bias=False)
              (bn1): InstanceNorm2d(128, eps=1e-05, momentum=0.1, affine=False, track_running_stats=False)
              (drop_block): Identity()
              (act1): GELU(approximate='none')
              (aa): Identity()
              (conv2): Conv2d(128, 128, kernel_size=(3, 3), stride=(1, 1), padding=(1, 1), bias=False)
              (bn2): InstanceNorm2d(128, eps=1e-05, momentum=0.1, affine=False, track_running_stats=False)
              (act2): GELU(approximate='none')
              (cbam): CBAM(
                (channel_attention): Channel_Attention(
                  (shared_mlp): Sequential(
                    (0): Flatten(start_dim=1, end_dim=-1)
                    (1): Linear(in_features=128, out_features=8, bias=True)
                    (2): ReLU(inplace=True)
                    (3): Linear(in_features=8, out_features=128, bias=True)
                  )
                )
                (spatial_attention): Spatial_Attention(
                  (compress): ChannelPool()
                  (spatial_attention): Sequential(
                    (0): Conv2d(2, 1, kernel_size=(7, 7), stride=(1, 1), padding=(3, 3), bias=False)
                    (1): BatchNorm2d(1, eps=1e-05, momentum=0.01, affine=True, track_running_stats=True)
                  )
                )
              )
            )
            (1): BasicBlock(
              (conv1): Conv2d(128, 128, kernel_size=(3, 3), stride=(1, 1), padding=(1, 1), bias=False)
              (bn1): InstanceNorm2d(128, eps=1e-05, momentum=0.1, affine=False, track_running_stats=False)
              (drop_block): Identity()
              (act1): GELU(approximate='none')
              (aa): Identity()
              (conv2): Conv2d(128, 128, kernel_size=(3, 3), stride=(1, 1), padding=(1, 1), bias=False)
              (bn2): InstanceNorm2d(128, eps=1e-05, momentum=0.1, affine=False, track_running_stats=False)
              (act2): GELU(approximate='none')
              (cbam): CBAM(
                (channel_attention): Channel_Attention(
                  (shared_mlp): Sequential(
                    (0): Flatten(start_dim=1, end_dim=-1)
                    (1): Linear(in_features=128, out_features=8, bias=True)
                    (2): ReLU(inplace=True)
                    (3): Linear(in_features=8, out_features=128, bias=True)
                  )
                )
                (spatial_attention): Spatial_Attention(
                  (compress): ChannelPool()
                  (spatial_attention): Sequential(
                    (0): Conv2d(2, 1, kernel_size=(7, 7), stride=(1, 1), padding=(3, 3), bias=False)
                    (1): BatchNorm2d(1, eps=1e-05, momentum=0.01, affine=True, track_running_stats=True)
                  )
                )
              )
            )
            (2): BasicBlock(
              (conv1): Conv2d(128, 128, kernel_size=(3, 3), stride=(1, 1), padding=(1, 1), bias=False)
              (bn1): InstanceNorm2d(128, eps=1e-05, momentum=0.1, affine=False, track_running_stats=False)
              (drop_block): Identity()
              (act1): GELU(approximate='none')
              (aa): Identity()
              (conv2): Conv2d(128, 128, kernel_size=(3, 3), stride=(1, 1), padding=(1, 1), bias=False)
              (bn2): InstanceNorm2d(128, eps=1e-05, momentum=0.1, affine=False, track_running_stats=False)
              (act2): GELU(approximate='none')
              (cbam): CBAM(
                (channel_attention): Channel_Attention(
                  (shared_mlp): Sequential(
                    (0): Flatten(start_dim=1, end_dim=-1)
                    (1): Linear(in_features=128, out_features=8, bias=True)
                    (2): ReLU(inplace=True)
                    (3): Linear(in_features=8, out_features=128, bias=True)
                  )
                )
                (spatial_attention): Spatial_Attention(
                  (compress): ChannelPool()
                  (spatial_attention): Sequential(
                    (0): Conv2d(2, 1, kernel_size=(7, 7), stride=(1, 1), padding=(3, 3), bias=False)
                    (1): BatchNorm2d(1, eps=1e-05, momentum=0.01, affine=True, track_running_stats=True)
                  )
                )
              )
            )
            (3): BasicBlock(
              (conv1): Conv2d(128, 128, kernel_size=(3, 3), stride=(1, 1), padding=(1, 1), bias=False)
              (bn1): InstanceNorm2d(128, eps=1e-05, momentum=0.1, affine=False, track_running_stats=False)
              (drop_block): Identity()
              (act1): GELU(approximate='none')
              (aa): Identity()
              (conv2): Conv2d(128, 128, kernel_size=(3, 3), stride=(1, 1), padding=(1, 1), bias=False)
              (bn2): InstanceNorm2d(128, eps=1e-05, momentum=0.1, affine=False, track_running_stats=False)
              (act2): GELU(approximate='none')
              (cbam): CBAM(
                (channel_attention): Channel_Attention(
                  (shared_mlp): Sequential(
                    (0): Flatten(start_dim=1, end_dim=-1)
                    (1): Linear(in_features=128, out_features=8, bias=True)
                    (2): ReLU(inplace=True)
                    (3): Linear(in_features=8, out_features=128, bias=True)
                  )
                )
                (spatial_attention): Spatial_Attention(
                  (compress): ChannelPool()
                  (spatial_attention): Sequential(
                    (0): Conv2d(2, 1, kernel_size=(7, 7), stride=(1, 1), padding=(3, 3), bias=False)
                    (1): BatchNorm2d(1, eps=1e-05, momentum=0.01, affine=True, track_running_stats=True)
                  )
                )
              )
            )
          )
          (2): Sequential(
            (0): BasicBlock(
              (conv1): Conv2d(256, 256, kernel_size=(3, 3), stride=(1, 1), padding=(1, 1), bias=False)
              (bn1): InstanceNorm2d(256, eps=1e-05, momentum=0.1, affine=False, track_running_stats=False)
              (drop_block): Identity()
              (act1): GELU(approximate='none')
              (aa): Identity()
              (conv2): Conv2d(256, 256, kernel_size=(3, 3), stride=(1, 1), padding=(1, 1), bias=False)
              (bn2): InstanceNorm2d(256, eps=1e-05, momentum=0.1, affine=False, track_running_stats=False)
              (act2): GELU(approximate='none')
              (cbam): CBAM(
                (channel_attention): Channel_Attention(
                  (shared_mlp): Sequential(
                    (0): Flatten(start_dim=1, end_dim=-1)
                    (1): Linear(in_features=256, out_features=16, bias=True)
                    (2): ReLU(inplace=True)
                    (3): Linear(in_features=16, out_features=256, bias=True)
                  )
                )
                (spatial_attention): Spatial_Attention(
                  (compress): ChannelPool()
                  (spatial_attention): Sequential(
                    (0): Conv2d(2, 1, kernel_size=(7, 7), stride=(1, 1), padding=(3, 3), bias=False)
                    (1): BatchNorm2d(1, eps=1e-05, momentum=0.01, affine=True, track_running_stats=True)
                  )
                )
              )
            )
            (1): BasicBlock(
              (conv1): Conv2d(256, 256, kernel_size=(3, 3), stride=(1, 1), padding=(1, 1), bias=False)
              (bn1): InstanceNorm2d(256, eps=1e-05, momentum=0.1, affine=False, track_running_stats=False)
              (drop_block): Identity()
              (act1): GELU(approximate='none')
              (aa): Identity()
              (conv2): Conv2d(256, 256, kernel_size=(3, 3), stride=(1, 1), padding=(1, 1), bias=False)
              (bn2): InstanceNorm2d(256, eps=1e-05, momentum=0.1, affine=False, track_running_stats=False)
              (act2): GELU(approximate='none')
              (cbam): CBAM(
                (channel_attention): Channel_Attention(
                  (shared_mlp): Sequential(
                    (0): Flatten(start_dim=1, end_dim=-1)
                    (1): Linear(in_features=256, out_features=16, bias=True)
                    (2): ReLU(inplace=True)
                    (3): Linear(in_features=16, out_features=256, bias=True)
                  )
                )
                (spatial_attention): Spatial_Attention(
                  (compress): ChannelPool()
                  (spatial_attention): Sequential(
                    (0): Conv2d(2, 1, kernel_size=(7, 7), stride=(1, 1), padding=(3, 3), bias=False)
                    (1): BatchNorm2d(1, eps=1e-05, momentum=0.01, affine=True, track_running_stats=True)
                  )
                )
              )
            )
            (2): BasicBlock(
              (conv1): Conv2d(256, 256, kernel_size=(3, 3), stride=(1, 1), padding=(1, 1), bias=False)
              (bn1): InstanceNorm2d(256, eps=1e-05, momentum=0.1, affine=False, track_running_stats=False)
              (drop_block): Identity()
              (act1): GELU(approximate='none')
              (aa): Identity()
              (conv2): Conv2d(256, 256, kernel_size=(3, 3), stride=(1, 1), padding=(1, 1), bias=False)
              (bn2): InstanceNorm2d(256, eps=1e-05, momentum=0.1, affine=False, track_running_stats=False)
              (act2): GELU(approximate='none')
              (cbam): CBAM(
                (channel_attention): Channel_Attention(
                  (shared_mlp): Sequential(
                    (0): Flatten(start_dim=1, end_dim=-1)
                    (1): Linear(in_features=256, out_features=16, bias=True)
                    (2): ReLU(inplace=True)
                    (3): Linear(in_features=16, out_features=256, bias=True)
                  )
                )
                (spatial_attention): Spatial_Attention(
                  (compress): ChannelPool()
                  (spatial_attention): Sequential(
                    (0): Conv2d(2, 1, kernel_size=(7, 7), stride=(1, 1), padding=(3, 3), bias=False)
                    (1): BatchNorm2d(1, eps=1e-05, momentum=0.01, affine=True, track_running_stats=True)
                  )
                )
              )
            )
            (3): BasicBlock(
              (conv1): Conv2d(256, 256, kernel_size=(3, 3), stride=(1, 1), padding=(1, 1), bias=False)
              (bn1): InstanceNorm2d(256, eps=1e-05, momentum=0.1, affine=False, track_running_stats=False)
              (drop_block): Identity()
              (act1): GELU(approximate='none')
              (aa): Identity()
              (conv2): Conv2d(256, 256, kernel_size=(3, 3), stride=(1, 1), padding=(1, 1), bias=False)
              (bn2): InstanceNorm2d(256, eps=1e-05, momentum=0.1, affine=False, track_running_stats=False)
              (act2): GELU(approximate='none')
              (cbam): CBAM(
                (channel_attention): Channel_Attention(
                  (shared_mlp): Sequential(
                    (0): Flatten(start_dim=1, end_dim=-1)
                    (1): Linear(in_features=256, out_features=16, bias=True)
                    (2): ReLU(inplace=True)
                    (3): Linear(in_features=16, out_features=256, bias=True)
                  )
                )
                (spatial_attention): Spatial_Attention(
                  (compress): ChannelPool()
                  (spatial_attention): Sequential(
                    (0): Conv2d(2, 1, kernel_size=(7, 7), stride=(1, 1), padding=(3, 3), bias=False)
                    (1): BatchNorm2d(1, eps=1e-05, momentum=0.01, affine=True, track_running_stats=True)
                  )
                )
              )
            )
          )
        )
        (fuse_layers): ModuleList(
          (0): ModuleList(
            (0): Identity()
            (1): Sequential(
              (0): Conv2d(128, 64, kernel_size=(1, 1), stride=(1, 1), bias=False)
              (1): BatchNorm2d(64, eps=1e-05, momentum=0.1, affine=True, track_running_stats=True)
              (2): Upsample(scale_factor=2.0, mode=nearest)
            )
            (2): Sequential(
              (0): Conv2d(256, 64, kernel_size=(1, 1), stride=(1, 1), bias=False)
              (1): BatchNorm2d(64, eps=1e-05, momentum=0.1, affine=True, track_running_stats=True)
              (2): Upsample(scale_factor=4.0, mode=nearest)
            )
          )
          (1): ModuleList(
            (0): Sequential(
              (0): Sequential(
                (0): Conv2d(64, 128, kernel_size=(3, 3), stride=(2, 2), padding=(1, 1), bias=False)
                (1): BatchNorm2d(128, eps=1e-05, momentum=0.1, affine=True, track_running_stats=True)
              )
            )
            (1): Identity()
            (2): Sequential(
              (0): Conv2d(256, 128, kernel_size=(1, 1), stride=(1, 1), bias=False)
              (1): BatchNorm2d(128, eps=1e-05, momentum=0.1, affine=True, track_running_stats=True)
              (2): Upsample(scale_factor=2.0, mode=nearest)
            )
          )
          (2): ModuleList(
            (0): Sequential(
              (0): Sequential(
                (0): Conv2d(64, 64, kernel_size=(3, 3), stride=(2, 2), padding=(1, 1), bias=False)
                (1): BatchNorm2d(64, eps=1e-05, momentum=0.1, affine=True, track_running_stats=True)
                (2): ReLU()
              )
              (1): Sequential(
                (0): Conv2d(64, 256, kernel_size=(3, 3), stride=(2, 2), padding=(1, 1), bias=False)
                (1): BatchNorm2d(256, eps=1e-05, momentum=0.1, affine=True, track_running_stats=True)
              )
            )
            (1): Sequential(
              (0): Sequential(
                (0): Conv2d(128, 256, kernel_size=(3, 3), stride=(2, 2), padding=(1, 1), bias=False)
                (1): BatchNorm2d(256, eps=1e-05, momentum=0.1, affine=True, track_running_stats=True)
              )
            )
            (2): Identity()
          )
        )
        (fuse_act): ReLU()
      )
      (1): HighResolutionModule(
        (branches): ModuleList(
          (0): Sequential(
            (0): BasicBlock(
              (conv1): Conv2d(64, 64, kernel_size=(3, 3), stride=(1, 1), padding=(1, 1), bias=False)
              (bn1): InstanceNorm2d(64, eps=1e-05, momentum=0.1, affine=False, track_running_stats=False)
              (drop_block): Identity()
              (act1): GELU(approximate='none')
              (aa): Identity()
              (conv2): Conv2d(64, 64, kernel_size=(3, 3), stride=(1, 1), padding=(1, 1), bias=False)
              (bn2): InstanceNorm2d(64, eps=1e-05, momentum=0.1, affine=False, track_running_stats=False)
              (act2): GELU(approximate='none')
              (cbam): CBAM(
                (channel_attention): Channel_Attention(
                  (shared_mlp): Sequential(
                    (0): Flatten(start_dim=1, end_dim=-1)
                    (1): Linear(in_features=64, out_features=4, bias=True)
                    (2): ReLU(inplace=True)
                    (3): Linear(in_features=4, out_features=64, bias=True)
                  )
                )
                (spatial_attention): Spatial_Attention(
                  (compress): ChannelPool()
                  (spatial_attention): Sequential(
                    (0): Conv2d(2, 1, kernel_size=(7, 7), stride=(1, 1), padding=(3, 3), bias=False)
                    (1): BatchNorm2d(1, eps=1e-05, momentum=0.01, affine=True, track_running_stats=True)
                  )
                )
              )
            )
            (1): BasicBlock(
              (conv1): Conv2d(64, 64, kernel_size=(3, 3), stride=(1, 1), padding=(1, 1), bias=False)
              (bn1): InstanceNorm2d(64, eps=1e-05, momentum=0.1, affine=False, track_running_stats=False)
              (drop_block): Identity()
              (act1): GELU(approximate='none')
              (aa): Identity()
              (conv2): Conv2d(64, 64, kernel_size=(3, 3), stride=(1, 1), padding=(1, 1), bias=False)
              (bn2): InstanceNorm2d(64, eps=1e-05, momentum=0.1, affine=False, track_running_stats=False)
              (act2): GELU(approximate='none')
              (cbam): CBAM(
                (channel_attention): Channel_Attention(
                  (shared_mlp): Sequential(
                    (0): Flatten(start_dim=1, end_dim=-1)
                    (1): Linear(in_features=64, out_features=4, bias=True)
                    (2): ReLU(inplace=True)
                    (3): Linear(in_features=4, out_features=64, bias=True)
                  )
                )
                (spatial_attention): Spatial_Attention(
                  (compress): ChannelPool()
                  (spatial_attention): Sequential(
                    (0): Conv2d(2, 1, kernel_size=(7, 7), stride=(1, 1), padding=(3, 3), bias=False)
                    (1): BatchNorm2d(1, eps=1e-05, momentum=0.01, affine=True, track_running_stats=True)
                  )
                )
              )
            )
            (2): BasicBlock(
              (conv1): Conv2d(64, 64, kernel_size=(3, 3), stride=(1, 1), padding=(1, 1), bias=False)
              (bn1): InstanceNorm2d(64, eps=1e-05, momentum=0.1, affine=False, track_running_stats=False)
              (drop_block): Identity()
              (act1): GELU(approximate='none')
              (aa): Identity()
              (conv2): Conv2d(64, 64, kernel_size=(3, 3), stride=(1, 1), padding=(1, 1), bias=False)
              (bn2): InstanceNorm2d(64, eps=1e-05, momentum=0.1, affine=False, track_running_stats=False)
              (act2): GELU(approximate='none')
              (cbam): CBAM(
                (channel_attention): Channel_Attention(
                  (shared_mlp): Sequential(
                    (0): Flatten(start_dim=1, end_dim=-1)
                    (1): Linear(in_features=64, out_features=4, bias=True)
                    (2): ReLU(inplace=True)
                    (3): Linear(in_features=4, out_features=64, bias=True)
                  )
                )
                (spatial_attention): Spatial_Attention(
                  (compress): ChannelPool()
                  (spatial_attention): Sequential(
                    (0): Conv2d(2, 1, kernel_size=(7, 7), stride=(1, 1), padding=(3, 3), bias=False)
                    (1): BatchNorm2d(1, eps=1e-05, momentum=0.01, affine=True, track_running_stats=True)
                  )
                )
              )
            )
            (3): BasicBlock(
              (conv1): Conv2d(64, 64, kernel_size=(3, 3), stride=(1, 1), padding=(1, 1), bias=False)
              (bn1): InstanceNorm2d(64, eps=1e-05, momentum=0.1, affine=False, track_running_stats=False)
              (drop_block): Identity()
              (act1): GELU(approximate='none')
              (aa): Identity()
              (conv2): Conv2d(64, 64, kernel_size=(3, 3), stride=(1, 1), padding=(1, 1), bias=False)
              (bn2): InstanceNorm2d(64, eps=1e-05, momentum=0.1, affine=False, track_running_stats=False)
              (act2): GELU(approximate='none')
              (cbam): CBAM(
                (channel_attention): Channel_Attention(
                  (shared_mlp): Sequential(
                    (0): Flatten(start_dim=1, end_dim=-1)
                    (1): Linear(in_features=64, out_features=4, bias=True)
                    (2): ReLU(inplace=True)
                    (3): Linear(in_features=4, out_features=64, bias=True)
                  )
                )
                (spatial_attention): Spatial_Attention(
                  (compress): ChannelPool()
                  (spatial_attention): Sequential(
                    (0): Conv2d(2, 1, kernel_size=(7, 7), stride=(1, 1), padding=(3, 3), bias=False)
                    (1): BatchNorm2d(1, eps=1e-05, momentum=0.01, affine=True, track_running_stats=True)
                  )
                )
              )
            )
          )
          (1): Sequential(
            (0): BasicBlock(
              (conv1): Conv2d(128, 128, kernel_size=(3, 3), stride=(1, 1), padding=(1, 1), bias=False)
              (bn1): InstanceNorm2d(128, eps=1e-05, momentum=0.1, affine=False, track_running_stats=False)
              (drop_block): Identity()
              (act1): GELU(approximate='none')
              (aa): Identity()
              (conv2): Conv2d(128, 128, kernel_size=(3, 3), stride=(1, 1), padding=(1, 1), bias=False)
              (bn2): InstanceNorm2d(128, eps=1e-05, momentum=0.1, affine=False, track_running_stats=False)
              (act2): GELU(approximate='none')
              (cbam): CBAM(
                (channel_attention): Channel_Attention(
                  (shared_mlp): Sequential(
                    (0): Flatten(start_dim=1, end_dim=-1)
                    (1): Linear(in_features=128, out_features=8, bias=True)
                    (2): ReLU(inplace=True)
                    (3): Linear(in_features=8, out_features=128, bias=True)
                  )
                )
                (spatial_attention): Spatial_Attention(
                  (compress): ChannelPool()
                  (spatial_attention): Sequential(
                    (0): Conv2d(2, 1, kernel_size=(7, 7), stride=(1, 1), padding=(3, 3), bias=False)
                    (1): BatchNorm2d(1, eps=1e-05, momentum=0.01, affine=True, track_running_stats=True)
                  )
                )
              )
            )
            (1): BasicBlock(
              (conv1): Conv2d(128, 128, kernel_size=(3, 3), stride=(1, 1), padding=(1, 1), bias=False)
              (bn1): InstanceNorm2d(128, eps=1e-05, momentum=0.1, affine=False, track_running_stats=False)
              (drop_block): Identity()
              (act1): GELU(approximate='none')
              (aa): Identity()
              (conv2): Conv2d(128, 128, kernel_size=(3, 3), stride=(1, 1), padding=(1, 1), bias=False)
              (bn2): InstanceNorm2d(128, eps=1e-05, momentum=0.1, affine=False, track_running_stats=False)
              (act2): GELU(approximate='none')
              (cbam): CBAM(
                (channel_attention): Channel_Attention(
                  (shared_mlp): Sequential(
                    (0): Flatten(start_dim=1, end_dim=-1)
                    (1): Linear(in_features=128, out_features=8, bias=True)
                    (2): ReLU(inplace=True)
                    (3): Linear(in_features=8, out_features=128, bias=True)
                  )
                )
                (spatial_attention): Spatial_Attention(
                  (compress): ChannelPool()
                  (spatial_attention): Sequential(
                    (0): Conv2d(2, 1, kernel_size=(7, 7), stride=(1, 1), padding=(3, 3), bias=False)
                    (1): BatchNorm2d(1, eps=1e-05, momentum=0.01, affine=True, track_running_stats=True)
                  )
                )
              )
            )
            (2): BasicBlock(
              (conv1): Conv2d(128, 128, kernel_size=(3, 3), stride=(1, 1), padding=(1, 1), bias=False)
              (bn1): InstanceNorm2d(128, eps=1e-05, momentum=0.1, affine=False, track_running_stats=False)
              (drop_block): Identity()
              (act1): GELU(approximate='none')
              (aa): Identity()
              (conv2): Conv2d(128, 128, kernel_size=(3, 3), stride=(1, 1), padding=(1, 1), bias=False)
              (bn2): InstanceNorm2d(128, eps=1e-05, momentum=0.1, affine=False, track_running_stats=False)
              (act2): GELU(approximate='none')
              (cbam): CBAM(
                (channel_attention): Channel_Attention(
                  (shared_mlp): Sequential(
                    (0): Flatten(start_dim=1, end_dim=-1)
                    (1): Linear(in_features=128, out_features=8, bias=True)
                    (2): ReLU(inplace=True)
                    (3): Linear(in_features=8, out_features=128, bias=True)
                  )
                )
                (spatial_attention): Spatial_Attention(
                  (compress): ChannelPool()
                  (spatial_attention): Sequential(
                    (0): Conv2d(2, 1, kernel_size=(7, 7), stride=(1, 1), padding=(3, 3), bias=False)
                    (1): BatchNorm2d(1, eps=1e-05, momentum=0.01, affine=True, track_running_stats=True)
                  )
                )
              )
            )
            (3): BasicBlock(
              (conv1): Conv2d(128, 128, kernel_size=(3, 3), stride=(1, 1), padding=(1, 1), bias=False)
              (bn1): InstanceNorm2d(128, eps=1e-05, momentum=0.1, affine=False, track_running_stats=False)
              (drop_block): Identity()
              (act1): GELU(approximate='none')
              (aa): Identity()
              (conv2): Conv2d(128, 128, kernel_size=(3, 3), stride=(1, 1), padding=(1, 1), bias=False)
              (bn2): InstanceNorm2d(128, eps=1e-05, momentum=0.1, affine=False, track_running_stats=False)
              (act2): GELU(approximate='none')
              (cbam): CBAM(
                (channel_attention): Channel_Attention(
                  (shared_mlp): Sequential(
                    (0): Flatten(start_dim=1, end_dim=-1)
                    (1): Linear(in_features=128, out_features=8, bias=True)
                    (2): ReLU(inplace=True)
                    (3): Linear(in_features=8, out_features=128, bias=True)
                  )
                )
                (spatial_attention): Spatial_Attention(
                  (compress): ChannelPool()
                  (spatial_attention): Sequential(
                    (0): Conv2d(2, 1, kernel_size=(7, 7), stride=(1, 1), padding=(3, 3), bias=False)
                    (1): BatchNorm2d(1, eps=1e-05, momentum=0.01, affine=True, track_running_stats=True)
                  )
                )
              )
            )
          )
          (2): Sequential(
            (0): BasicBlock(
              (conv1): Conv2d(256, 256, kernel_size=(3, 3), stride=(1, 1), padding=(1, 1), bias=False)
              (bn1): InstanceNorm2d(256, eps=1e-05, momentum=0.1, affine=False, track_running_stats=False)
              (drop_block): Identity()
              (act1): GELU(approximate='none')
              (aa): Identity()
              (conv2): Conv2d(256, 256, kernel_size=(3, 3), stride=(1, 1), padding=(1, 1), bias=False)
              (bn2): InstanceNorm2d(256, eps=1e-05, momentum=0.1, affine=False, track_running_stats=False)
              (act2): GELU(approximate='none')
              (cbam): CBAM(
                (channel_attention): Channel_Attention(
                  (shared_mlp): Sequential(
                    (0): Flatten(start_dim=1, end_dim=-1)
                    (1): Linear(in_features=256, out_features=16, bias=True)
                    (2): ReLU(inplace=True)
                    (3): Linear(in_features=16, out_features=256, bias=True)
                  )
                )
                (spatial_attention): Spatial_Attention(
                  (compress): ChannelPool()
                  (spatial_attention): Sequential(
                    (0): Conv2d(2, 1, kernel_size=(7, 7), stride=(1, 1), padding=(3, 3), bias=False)
                    (1): BatchNorm2d(1, eps=1e-05, momentum=0.01, affine=True, track_running_stats=True)
                  )
                )
              )
            )
            (1): BasicBlock(
              (conv1): Conv2d(256, 256, kernel_size=(3, 3), stride=(1, 1), padding=(1, 1), bias=False)
              (bn1): InstanceNorm2d(256, eps=1e-05, momentum=0.1, affine=False, track_running_stats=False)
              (drop_block): Identity()
              (act1): GELU(approximate='none')
              (aa): Identity()
              (conv2): Conv2d(256, 256, kernel_size=(3, 3), stride=(1, 1), padding=(1, 1), bias=False)
              (bn2): InstanceNorm2d(256, eps=1e-05, momentum=0.1, affine=False, track_running_stats=False)
              (act2): GELU(approximate='none')
              (cbam): CBAM(
                (channel_attention): Channel_Attention(
                  (shared_mlp): Sequential(
                    (0): Flatten(start_dim=1, end_dim=-1)
                    (1): Linear(in_features=256, out_features=16, bias=True)
                    (2): ReLU(inplace=True)
                    (3): Linear(in_features=16, out_features=256, bias=True)
                  )
                )
                (spatial_attention): Spatial_Attention(
                  (compress): ChannelPool()
                  (spatial_attention): Sequential(
                    (0): Conv2d(2, 1, kernel_size=(7, 7), stride=(1, 1), padding=(3, 3), bias=False)
                    (1): BatchNorm2d(1, eps=1e-05, momentum=0.01, affine=True, track_running_stats=True)
                  )
                )
              )
            )
            (2): BasicBlock(
              (conv1): Conv2d(256, 256, kernel_size=(3, 3), stride=(1, 1), padding=(1, 1), bias=False)
              (bn1): InstanceNorm2d(256, eps=1e-05, momentum=0.1, affine=False, track_running_stats=False)
              (drop_block): Identity()
              (act1): GELU(approximate='none')
              (aa): Identity()
              (conv2): Conv2d(256, 256, kernel_size=(3, 3), stride=(1, 1), padding=(1, 1), bias=False)
              (bn2): InstanceNorm2d(256, eps=1e-05, momentum=0.1, affine=False, track_running_stats=False)
              (act2): GELU(approximate='none')
              (cbam): CBAM(
                (channel_attention): Channel_Attention(
                  (shared_mlp): Sequential(
                    (0): Flatten(start_dim=1, end_dim=-1)
                    (1): Linear(in_features=256, out_features=16, bias=True)
                    (2): ReLU(inplace=True)
                    (3): Linear(in_features=16, out_features=256, bias=True)
                  )
                )
                (spatial_attention): Spatial_Attention(
                  (compress): ChannelPool()
                  (spatial_attention): Sequential(
                    (0): Conv2d(2, 1, kernel_size=(7, 7), stride=(1, 1), padding=(3, 3), bias=False)
                    (1): BatchNorm2d(1, eps=1e-05, momentum=0.01, affine=True, track_running_stats=True)
                  )
                )
              )
            )
            (3): BasicBlock(
              (conv1): Conv2d(256, 256, kernel_size=(3, 3), stride=(1, 1), padding=(1, 1), bias=False)
              (bn1): InstanceNorm2d(256, eps=1e-05, momentum=0.1, affine=False, track_running_stats=False)
              (drop_block): Identity()
              (act1): GELU(approximate='none')
              (aa): Identity()
              (conv2): Conv2d(256, 256, kernel_size=(3, 3), stride=(1, 1), padding=(1, 1), bias=False)
              (bn2): InstanceNorm2d(256, eps=1e-05, momentum=0.1, affine=False, track_running_stats=False)
              (act2): GELU(approximate='none')
              (cbam): CBAM(
                (channel_attention): Channel_Attention(
                  (shared_mlp): Sequential(
                    (0): Flatten(start_dim=1, end_dim=-1)
                    (1): Linear(in_features=256, out_features=16, bias=True)
                    (2): ReLU(inplace=True)
                    (3): Linear(in_features=16, out_features=256, bias=True)
                  )
                )
                (spatial_attention): Spatial_Attention(
                  (compress): ChannelPool()
                  (spatial_attention): Sequential(
                    (0): Conv2d(2, 1, kernel_size=(7, 7), stride=(1, 1), padding=(3, 3), bias=False)
                    (1): BatchNorm2d(1, eps=1e-05, momentum=0.01, affine=True, track_running_stats=True)
                  )
                )
              )
            )
          )
        )
        (fuse_layers): ModuleList(
          (0): ModuleList(
            (0): Identity()
            (1): Sequential(
              (0): Conv2d(128, 64, kernel_size=(1, 1), stride=(1, 1), bias=False)
              (1): BatchNorm2d(64, eps=1e-05, momentum=0.1, affine=True, track_running_stats=True)
              (2): Upsample(scale_factor=2.0, mode=nearest)
            )
            (2): Sequential(
              (0): Conv2d(256, 64, kernel_size=(1, 1), stride=(1, 1), bias=False)
              (1): BatchNorm2d(64, eps=1e-05, momentum=0.1, affine=True, track_running_stats=True)
              (2): Upsample(scale_factor=4.0, mode=nearest)
            )
          )
          (1): ModuleList(
            (0): Sequential(
              (0): Sequential(
                (0): Conv2d(64, 128, kernel_size=(3, 3), stride=(2, 2), padding=(1, 1), bias=False)
                (1): BatchNorm2d(128, eps=1e-05, momentum=0.1, affine=True, track_running_stats=True)
              )
            )
            (1): Identity()
            (2): Sequential(
              (0): Conv2d(256, 128, kernel_size=(1, 1), stride=(1, 1), bias=False)
              (1): BatchNorm2d(128, eps=1e-05, momentum=0.1, affine=True, track_running_stats=True)
              (2): Upsample(scale_factor=2.0, mode=nearest)
            )
          )
          (2): ModuleList(
            (0): Sequential(
              (0): Sequential(
                (0): Conv2d(64, 64, kernel_size=(3, 3), stride=(2, 2), padding=(1, 1), bias=False)
                (1): BatchNorm2d(64, eps=1e-05, momentum=0.1, affine=True, track_running_stats=True)
                (2): ReLU()
              )
              (1): Sequential(
                (0): Conv2d(64, 256, kernel_size=(3, 3), stride=(2, 2), padding=(1, 1), bias=False)
                (1): BatchNorm2d(256, eps=1e-05, momentum=0.1, affine=True, track_running_stats=True)
              )
            )
            (1): Sequential(
              (0): Sequential(
                (0): Conv2d(128, 256, kernel_size=(3, 3), stride=(2, 2), padding=(1, 1), bias=False)
                (1): BatchNorm2d(256, eps=1e-05, momentum=0.1, affine=True, track_running_stats=True)
              )
            )
            (2): Identity()
          )
        )
        (fuse_act): ReLU()
      )
      (2): HighResolutionModule(
        (branches): ModuleList(
          (0): Sequential(
            (0): BasicBlock(
              (conv1): Conv2d(64, 64, kernel_size=(3, 3), stride=(1, 1), padding=(1, 1), bias=False)
              (bn1): InstanceNorm2d(64, eps=1e-05, momentum=0.1, affine=False, track_running_stats=False)
              (drop_block): Identity()
              (act1): GELU(approximate='none')
              (aa): Identity()
              (conv2): Conv2d(64, 64, kernel_size=(3, 3), stride=(1, 1), padding=(1, 1), bias=False)
              (bn2): InstanceNorm2d(64, eps=1e-05, momentum=0.1, affine=False, track_running_stats=False)
              (act2): GELU(approximate='none')
              (cbam): CBAM(
                (channel_attention): Channel_Attention(
                  (shared_mlp): Sequential(
                    (0): Flatten(start_dim=1, end_dim=-1)
                    (1): Linear(in_features=64, out_features=4, bias=True)
                    (2): ReLU(inplace=True)
                    (3): Linear(in_features=4, out_features=64, bias=True)
                  )
                )
                (spatial_attention): Spatial_Attention(
                  (compress): ChannelPool()
                  (spatial_attention): Sequential(
                    (0): Conv2d(2, 1, kernel_size=(7, 7), stride=(1, 1), padding=(3, 3), bias=False)
                    (1): BatchNorm2d(1, eps=1e-05, momentum=0.01, affine=True, track_running_stats=True)
                  )
                )
              )
            )
            (1): BasicBlock(
              (conv1): Conv2d(64, 64, kernel_size=(3, 3), stride=(1, 1), padding=(1, 1), bias=False)
              (bn1): InstanceNorm2d(64, eps=1e-05, momentum=0.1, affine=False, track_running_stats=False)
              (drop_block): Identity()
              (act1): GELU(approximate='none')
              (aa): Identity()
              (conv2): Conv2d(64, 64, kernel_size=(3, 3), stride=(1, 1), padding=(1, 1), bias=False)
              (bn2): InstanceNorm2d(64, eps=1e-05, momentum=0.1, affine=False, track_running_stats=False)
              (act2): GELU(approximate='none')
              (cbam): CBAM(
                (channel_attention): Channel_Attention(
                  (shared_mlp): Sequential(
                    (0): Flatten(start_dim=1, end_dim=-1)
                    (1): Linear(in_features=64, out_features=4, bias=True)
                    (2): ReLU(inplace=True)
                    (3): Linear(in_features=4, out_features=64, bias=True)
                  )
                )
                (spatial_attention): Spatial_Attention(
                  (compress): ChannelPool()
                  (spatial_attention): Sequential(
                    (0): Conv2d(2, 1, kernel_size=(7, 7), stride=(1, 1), padding=(3, 3), bias=False)
                    (1): BatchNorm2d(1, eps=1e-05, momentum=0.01, affine=True, track_running_stats=True)
                  )
                )
              )
            )
            (2): BasicBlock(
              (conv1): Conv2d(64, 64, kernel_size=(3, 3), stride=(1, 1), padding=(1, 1), bias=False)
              (bn1): InstanceNorm2d(64, eps=1e-05, momentum=0.1, affine=False, track_running_stats=False)
              (drop_block): Identity()
              (act1): GELU(approximate='none')
              (aa): Identity()
              (conv2): Conv2d(64, 64, kernel_size=(3, 3), stride=(1, 1), padding=(1, 1), bias=False)
              (bn2): InstanceNorm2d(64, eps=1e-05, momentum=0.1, affine=False, track_running_stats=False)
              (act2): GELU(approximate='none')
              (cbam): CBAM(
                (channel_attention): Channel_Attention(
                  (shared_mlp): Sequential(
                    (0): Flatten(start_dim=1, end_dim=-1)
                    (1): Linear(in_features=64, out_features=4, bias=True)
                    (2): ReLU(inplace=True)
                    (3): Linear(in_features=4, out_features=64, bias=True)
                  )
                )
                (spatial_attention): Spatial_Attention(
                  (compress): ChannelPool()
                  (spatial_attention): Sequential(
                    (0): Conv2d(2, 1, kernel_size=(7, 7), stride=(1, 1), padding=(3, 3), bias=False)
                    (1): BatchNorm2d(1, eps=1e-05, momentum=0.01, affine=True, track_running_stats=True)
                  )
                )
              )
            )
            (3): BasicBlock(
              (conv1): Conv2d(64, 64, kernel_size=(3, 3), stride=(1, 1), padding=(1, 1), bias=False)
              (bn1): InstanceNorm2d(64, eps=1e-05, momentum=0.1, affine=False, track_running_stats=False)
              (drop_block): Identity()
              (act1): GELU(approximate='none')
              (aa): Identity()
              (conv2): Conv2d(64, 64, kernel_size=(3, 3), stride=(1, 1), padding=(1, 1), bias=False)
              (bn2): InstanceNorm2d(64, eps=1e-05, momentum=0.1, affine=False, track_running_stats=False)
              (act2): GELU(approximate='none')
              (cbam): CBAM(
                (channel_attention): Channel_Attention(
                  (shared_mlp): Sequential(
                    (0): Flatten(start_dim=1, end_dim=-1)
                    (1): Linear(in_features=64, out_features=4, bias=True)
                    (2): ReLU(inplace=True)
                    (3): Linear(in_features=4, out_features=64, bias=True)
                  )
                )
                (spatial_attention): Spatial_Attention(
                  (compress): ChannelPool()
                  (spatial_attention): Sequential(
                    (0): Conv2d(2, 1, kernel_size=(7, 7), stride=(1, 1), padding=(3, 3), bias=False)
                    (1): BatchNorm2d(1, eps=1e-05, momentum=0.01, affine=True, track_running_stats=True)
                  )
                )
              )
            )
          )
          (1): Sequential(
            (0): BasicBlock(
              (conv1): Conv2d(128, 128, kernel_size=(3, 3), stride=(1, 1), padding=(1, 1), bias=False)
              (bn1): InstanceNorm2d(128, eps=1e-05, momentum=0.1, affine=False, track_running_stats=False)
              (drop_block): Identity()
              (act1): GELU(approximate='none')
              (aa): Identity()
              (conv2): Conv2d(128, 128, kernel_size=(3, 3), stride=(1, 1), padding=(1, 1), bias=False)
              (bn2): InstanceNorm2d(128, eps=1e-05, momentum=0.1, affine=False, track_running_stats=False)
              (act2): GELU(approximate='none')
              (cbam): CBAM(
                (channel_attention): Channel_Attention(
                  (shared_mlp): Sequential(
                    (0): Flatten(start_dim=1, end_dim=-1)
                    (1): Linear(in_features=128, out_features=8, bias=True)
                    (2): ReLU(inplace=True)
                    (3): Linear(in_features=8, out_features=128, bias=True)
                  )
                )
                (spatial_attention): Spatial_Attention(
                  (compress): ChannelPool()
                  (spatial_attention): Sequential(
                    (0): Conv2d(2, 1, kernel_size=(7, 7), stride=(1, 1), padding=(3, 3), bias=False)
                    (1): BatchNorm2d(1, eps=1e-05, momentum=0.01, affine=True, track_running_stats=True)
                  )
                )
              )
            )
            (1): BasicBlock(
              (conv1): Conv2d(128, 128, kernel_size=(3, 3), stride=(1, 1), padding=(1, 1), bias=False)
              (bn1): InstanceNorm2d(128, eps=1e-05, momentum=0.1, affine=False, track_running_stats=False)
              (drop_block): Identity()
              (act1): GELU(approximate='none')
              (aa): Identity()
              (conv2): Conv2d(128, 128, kernel_size=(3, 3), stride=(1, 1), padding=(1, 1), bias=False)
              (bn2): InstanceNorm2d(128, eps=1e-05, momentum=0.1, affine=False, track_running_stats=False)
              (act2): GELU(approximate='none')
              (cbam): CBAM(
                (channel_attention): Channel_Attention(
                  (shared_mlp): Sequential(
                    (0): Flatten(start_dim=1, end_dim=-1)
                    (1): Linear(in_features=128, out_features=8, bias=True)
                    (2): ReLU(inplace=True)
                    (3): Linear(in_features=8, out_features=128, bias=True)
                  )
                )
                (spatial_attention): Spatial_Attention(
                  (compress): ChannelPool()
                  (spatial_attention): Sequential(
                    (0): Conv2d(2, 1, kernel_size=(7, 7), stride=(1, 1), padding=(3, 3), bias=False)
                    (1): BatchNorm2d(1, eps=1e-05, momentum=0.01, affine=True, track_running_stats=True)
                  )
                )
              )
            )
            (2): BasicBlock(
              (conv1): Conv2d(128, 128, kernel_size=(3, 3), stride=(1, 1), padding=(1, 1), bias=False)
              (bn1): InstanceNorm2d(128, eps=1e-05, momentum=0.1, affine=False, track_running_stats=False)
              (drop_block): Identity()
              (act1): GELU(approximate='none')
              (aa): Identity()
              (conv2): Conv2d(128, 128, kernel_size=(3, 3), stride=(1, 1), padding=(1, 1), bias=False)
              (bn2): InstanceNorm2d(128, eps=1e-05, momentum=0.1, affine=False, track_running_stats=False)
              (act2): GELU(approximate='none')
              (cbam): CBAM(
                (channel_attention): Channel_Attention(
                  (shared_mlp): Sequential(
                    (0): Flatten(start_dim=1, end_dim=-1)
                    (1): Linear(in_features=128, out_features=8, bias=True)
                    (2): ReLU(inplace=True)
                    (3): Linear(in_features=8, out_features=128, bias=True)
                  )
                )
                (spatial_attention): Spatial_Attention(
                  (compress): ChannelPool()
                  (spatial_attention): Sequential(
                    (0): Conv2d(2, 1, kernel_size=(7, 7), stride=(1, 1), padding=(3, 3), bias=False)
                    (1): BatchNorm2d(1, eps=1e-05, momentum=0.01, affine=True, track_running_stats=True)
                  )
                )
              )
            )
            (3): BasicBlock(
              (conv1): Conv2d(128, 128, kernel_size=(3, 3), stride=(1, 1), padding=(1, 1), bias=False)
              (bn1): InstanceNorm2d(128, eps=1e-05, momentum=0.1, affine=False, track_running_stats=False)
              (drop_block): Identity()
              (act1): GELU(approximate='none')
              (aa): Identity()
              (conv2): Conv2d(128, 128, kernel_size=(3, 3), stride=(1, 1), padding=(1, 1), bias=False)
              (bn2): InstanceNorm2d(128, eps=1e-05, momentum=0.1, affine=False, track_running_stats=False)
              (act2): GELU(approximate='none')
              (cbam): CBAM(
                (channel_attention): Channel_Attention(
                  (shared_mlp): Sequential(
                    (0): Flatten(start_dim=1, end_dim=-1)
                    (1): Linear(in_features=128, out_features=8, bias=True)
                    (2): ReLU(inplace=True)
                    (3): Linear(in_features=8, out_features=128, bias=True)
                  )
                )
                (spatial_attention): Spatial_Attention(
                  (compress): ChannelPool()
                  (spatial_attention): Sequential(
                    (0): Conv2d(2, 1, kernel_size=(7, 7), stride=(1, 1), padding=(3, 3), bias=False)
                    (1): BatchNorm2d(1, eps=1e-05, momentum=0.01, affine=True, track_running_stats=True)
                  )
                )
              )
            )
          )
          (2): Sequential(
            (0): BasicBlock(
              (conv1): Conv2d(256, 256, kernel_size=(3, 3), stride=(1, 1), padding=(1, 1), bias=False)
              (bn1): InstanceNorm2d(256, eps=1e-05, momentum=0.1, affine=False, track_running_stats=False)
              (drop_block): Identity()
              (act1): GELU(approximate='none')
              (aa): Identity()
              (conv2): Conv2d(256, 256, kernel_size=(3, 3), stride=(1, 1), padding=(1, 1), bias=False)
              (bn2): InstanceNorm2d(256, eps=1e-05, momentum=0.1, affine=False, track_running_stats=False)
              (act2): GELU(approximate='none')
              (cbam): CBAM(
                (channel_attention): Channel_Attention(
                  (shared_mlp): Sequential(
                    (0): Flatten(start_dim=1, end_dim=-1)
                    (1): Linear(in_features=256, out_features=16, bias=True)
                    (2): ReLU(inplace=True)
                    (3): Linear(in_features=16, out_features=256, bias=True)
                  )
                )
                (spatial_attention): Spatial_Attention(
                  (compress): ChannelPool()
                  (spatial_attention): Sequential(
                    (0): Conv2d(2, 1, kernel_size=(7, 7), stride=(1, 1), padding=(3, 3), bias=False)
                    (1): BatchNorm2d(1, eps=1e-05, momentum=0.01, affine=True, track_running_stats=True)
                  )
                )
              )
            )
            (1): BasicBlock(
              (conv1): Conv2d(256, 256, kernel_size=(3, 3), stride=(1, 1), padding=(1, 1), bias=False)
              (bn1): InstanceNorm2d(256, eps=1e-05, momentum=0.1, affine=False, track_running_stats=False)
              (drop_block): Identity()
              (act1): GELU(approximate='none')
              (aa): Identity()
              (conv2): Conv2d(256, 256, kernel_size=(3, 3), stride=(1, 1), padding=(1, 1), bias=False)
              (bn2): InstanceNorm2d(256, eps=1e-05, momentum=0.1, affine=False, track_running_stats=False)
              (act2): GELU(approximate='none')
              (cbam): CBAM(
                (channel_attention): Channel_Attention(
                  (shared_mlp): Sequential(
                    (0): Flatten(start_dim=1, end_dim=-1)
                    (1): Linear(in_features=256, out_features=16, bias=True)
                    (2): ReLU(inplace=True)
                    (3): Linear(in_features=16, out_features=256, bias=True)
                  )
                )
                (spatial_attention): Spatial_Attention(
                  (compress): ChannelPool()
                  (spatial_attention): Sequential(
                    (0): Conv2d(2, 1, kernel_size=(7, 7), stride=(1, 1), padding=(3, 3), bias=False)
                    (1): BatchNorm2d(1, eps=1e-05, momentum=0.01, affine=True, track_running_stats=True)
                  )
                )
              )
            )
            (2): BasicBlock(
              (conv1): Conv2d(256, 256, kernel_size=(3, 3), stride=(1, 1), padding=(1, 1), bias=False)
              (bn1): InstanceNorm2d(256, eps=1e-05, momentum=0.1, affine=False, track_running_stats=False)
              (drop_block): Identity()
              (act1): GELU(approximate='none')
              (aa): Identity()
              (conv2): Conv2d(256, 256, kernel_size=(3, 3), stride=(1, 1), padding=(1, 1), bias=False)
              (bn2): InstanceNorm2d(256, eps=1e-05, momentum=0.1, affine=False, track_running_stats=False)
              (act2): GELU(approximate='none')
              (cbam): CBAM(
                (channel_attention): Channel_Attention(
                  (shared_mlp): Sequential(
                    (0): Flatten(start_dim=1, end_dim=-1)
                    (1): Linear(in_features=256, out_features=16, bias=True)
                    (2): ReLU(inplace=True)
                    (3): Linear(in_features=16, out_features=256, bias=True)
                  )
                )
                (spatial_attention): Spatial_Attention(
                  (compress): ChannelPool()
                  (spatial_attention): Sequential(
                    (0): Conv2d(2, 1, kernel_size=(7, 7), stride=(1, 1), padding=(3, 3), bias=False)
                    (1): BatchNorm2d(1, eps=1e-05, momentum=0.01, affine=True, track_running_stats=True)
                  )
                )
              )
            )
            (3): BasicBlock(
              (conv1): Conv2d(256, 256, kernel_size=(3, 3), stride=(1, 1), padding=(1, 1), bias=False)
              (bn1): InstanceNorm2d(256, eps=1e-05, momentum=0.1, affine=False, track_running_stats=False)
              (drop_block): Identity()
              (act1): GELU(approximate='none')
              (aa): Identity()
              (conv2): Conv2d(256, 256, kernel_size=(3, 3), stride=(1, 1), padding=(1, 1), bias=False)
              (bn2): InstanceNorm2d(256, eps=1e-05, momentum=0.1, affine=False, track_running_stats=False)
              (act2): GELU(approximate='none')
              (cbam): CBAM(
                (channel_attention): Channel_Attention(
                  (shared_mlp): Sequential(
                    (0): Flatten(start_dim=1, end_dim=-1)
                    (1): Linear(in_features=256, out_features=16, bias=True)
                    (2): ReLU(inplace=True)
                    (3): Linear(in_features=16, out_features=256, bias=True)
                  )
                )
                (spatial_attention): Spatial_Attention(
                  (compress): ChannelPool()
                  (spatial_attention): Sequential(
                    (0): Conv2d(2, 1, kernel_size=(7, 7), stride=(1, 1), padding=(3, 3), bias=False)
                    (1): BatchNorm2d(1, eps=1e-05, momentum=0.01, affine=True, track_running_stats=True)
                  )
                )
              )
            )
          )
        )
        (fuse_layers): ModuleList(
          (0): ModuleList(
            (0): Identity()
            (1): Sequential(
              (0): Conv2d(128, 64, kernel_size=(1, 1), stride=(1, 1), bias=False)
              (1): BatchNorm2d(64, eps=1e-05, momentum=0.1, affine=True, track_running_stats=True)
              (2): Upsample(scale_factor=2.0, mode=nearest)
            )
            (2): Sequential(
              (0): Conv2d(256, 64, kernel_size=(1, 1), stride=(1, 1), bias=False)
              (1): BatchNorm2d(64, eps=1e-05, momentum=0.1, affine=True, track_running_stats=True)
              (2): Upsample(scale_factor=4.0, mode=nearest)
            )
          )
          (1): ModuleList(
            (0): Sequential(
              (0): Sequential(
                (0): Conv2d(64, 128, kernel_size=(3, 3), stride=(2, 2), padding=(1, 1), bias=False)
                (1): BatchNorm2d(128, eps=1e-05, momentum=0.1, affine=True, track_running_stats=True)
              )
            )
            (1): Identity()
            (2): Sequential(
              (0): Conv2d(256, 128, kernel_size=(1, 1), stride=(1, 1), bias=False)
              (1): BatchNorm2d(128, eps=1e-05, momentum=0.1, affine=True, track_running_stats=True)
              (2): Upsample(scale_factor=2.0, mode=nearest)
            )
          )
          (2): ModuleList(
            (0): Sequential(
              (0): Sequential(
                (0): Conv2d(64, 64, kernel_size=(3, 3), stride=(2, 2), padding=(1, 1), bias=False)
                (1): BatchNorm2d(64, eps=1e-05, momentum=0.1, affine=True, track_running_stats=True)
                (2): ReLU()
              )
              (1): Sequential(
                (0): Conv2d(64, 256, kernel_size=(3, 3), stride=(2, 2), padding=(1, 1), bias=False)
                (1): BatchNorm2d(256, eps=1e-05, momentum=0.1, affine=True, track_running_stats=True)
              )
            )
            (1): Sequential(
              (0): Sequential(
                (0): Conv2d(128, 256, kernel_size=(3, 3), stride=(2, 2), padding=(1, 1), bias=False)
                (1): BatchNorm2d(256, eps=1e-05, momentum=0.1, affine=True, track_running_stats=True)
              )
            )
            (2): Identity()
          )
        )
        (fuse_act): ReLU()
      )
      (3): HighResolutionModule(
        (branches): ModuleList(
          (0): Sequential(
            (0): BasicBlock(
              (conv1): Conv2d(64, 64, kernel_size=(3, 3), stride=(1, 1), padding=(1, 1), bias=False)
              (bn1): InstanceNorm2d(64, eps=1e-05, momentum=0.1, affine=False, track_running_stats=False)
              (drop_block): Identity()
              (act1): GELU(approximate='none')
              (aa): Identity()
              (conv2): Conv2d(64, 64, kernel_size=(3, 3), stride=(1, 1), padding=(1, 1), bias=False)
              (bn2): InstanceNorm2d(64, eps=1e-05, momentum=0.1, affine=False, track_running_stats=False)
              (act2): GELU(approximate='none')
              (cbam): CBAM(
                (channel_attention): Channel_Attention(
                  (shared_mlp): Sequential(
                    (0): Flatten(start_dim=1, end_dim=-1)
                    (1): Linear(in_features=64, out_features=4, bias=True)
                    (2): ReLU(inplace=True)
                    (3): Linear(in_features=4, out_features=64, bias=True)
                  )
                )
                (spatial_attention): Spatial_Attention(
                  (compress): ChannelPool()
                  (spatial_attention): Sequential(
                    (0): Conv2d(2, 1, kernel_size=(7, 7), stride=(1, 1), padding=(3, 3), bias=False)
                    (1): BatchNorm2d(1, eps=1e-05, momentum=0.01, affine=True, track_running_stats=True)
                  )
                )
              )
            )
            (1): BasicBlock(
              (conv1): Conv2d(64, 64, kernel_size=(3, 3), stride=(1, 1), padding=(1, 1), bias=False)
              (bn1): InstanceNorm2d(64, eps=1e-05, momentum=0.1, affine=False, track_running_stats=False)
              (drop_block): Identity()
              (act1): GELU(approximate='none')
              (aa): Identity()
              (conv2): Conv2d(64, 64, kernel_size=(3, 3), stride=(1, 1), padding=(1, 1), bias=False)
              (bn2): InstanceNorm2d(64, eps=1e-05, momentum=0.1, affine=False, track_running_stats=False)
              (act2): GELU(approximate='none')
              (cbam): CBAM(
                (channel_attention): Channel_Attention(
                  (shared_mlp): Sequential(
                    (0): Flatten(start_dim=1, end_dim=-1)
                    (1): Linear(in_features=64, out_features=4, bias=True)
                    (2): ReLU(inplace=True)
                    (3): Linear(in_features=4, out_features=64, bias=True)
                  )
                )
                (spatial_attention): Spatial_Attention(
                  (compress): ChannelPool()
                  (spatial_attention): Sequential(
                    (0): Conv2d(2, 1, kernel_size=(7, 7), stride=(1, 1), padding=(3, 3), bias=False)
                    (1): BatchNorm2d(1, eps=1e-05, momentum=0.01, affine=True, track_running_stats=True)
                  )
                )
              )
            )
            (2): BasicBlock(
              (conv1): Conv2d(64, 64, kernel_size=(3, 3), stride=(1, 1), padding=(1, 1), bias=False)
              (bn1): InstanceNorm2d(64, eps=1e-05, momentum=0.1, affine=False, track_running_stats=False)
              (drop_block): Identity()
              (act1): GELU(approximate='none')
              (aa): Identity()
              (conv2): Conv2d(64, 64, kernel_size=(3, 3), stride=(1, 1), padding=(1, 1), bias=False)
              (bn2): InstanceNorm2d(64, eps=1e-05, momentum=0.1, affine=False, track_running_stats=False)
              (act2): GELU(approximate='none')
              (cbam): CBAM(
                (channel_attention): Channel_Attention(
                  (shared_mlp): Sequential(
                    (0): Flatten(start_dim=1, end_dim=-1)
                    (1): Linear(in_features=64, out_features=4, bias=True)
                    (2): ReLU(inplace=True)
                    (3): Linear(in_features=4, out_features=64, bias=True)
                  )
                )
                (spatial_attention): Spatial_Attention(
                  (compress): ChannelPool()
                  (spatial_attention): Sequential(
                    (0): Conv2d(2, 1, kernel_size=(7, 7), stride=(1, 1), padding=(3, 3), bias=False)
                    (1): BatchNorm2d(1, eps=1e-05, momentum=0.01, affine=True, track_running_stats=True)
                  )
                )
              )
            )
            (3): BasicBlock(
              (conv1): Conv2d(64, 64, kernel_size=(3, 3), stride=(1, 1), padding=(1, 1), bias=False)
              (bn1): InstanceNorm2d(64, eps=1e-05, momentum=0.1, affine=False, track_running_stats=False)
              (drop_block): Identity()
              (act1): GELU(approximate='none')
              (aa): Identity()
              (conv2): Conv2d(64, 64, kernel_size=(3, 3), stride=(1, 1), padding=(1, 1), bias=False)
              (bn2): InstanceNorm2d(64, eps=1e-05, momentum=0.1, affine=False, track_running_stats=False)
              (act2): GELU(approximate='none')
              (cbam): CBAM(
                (channel_attention): Channel_Attention(
                  (shared_mlp): Sequential(
                    (0): Flatten(start_dim=1, end_dim=-1)
                    (1): Linear(in_features=64, out_features=4, bias=True)
                    (2): ReLU(inplace=True)
                    (3): Linear(in_features=4, out_features=64, bias=True)
                  )
                )
                (spatial_attention): Spatial_Attention(
                  (compress): ChannelPool()
                  (spatial_attention): Sequential(
                    (0): Conv2d(2, 1, kernel_size=(7, 7), stride=(1, 1), padding=(3, 3), bias=False)
                    (1): BatchNorm2d(1, eps=1e-05, momentum=0.01, affine=True, track_running_stats=True)
                  )
                )
              )
            )
          )
          (1): Sequential(
            (0): BasicBlock(
              (conv1): Conv2d(128, 128, kernel_size=(3, 3), stride=(1, 1), padding=(1, 1), bias=False)
              (bn1): InstanceNorm2d(128, eps=1e-05, momentum=0.1, affine=False, track_running_stats=False)
              (drop_block): Identity()
              (act1): GELU(approximate='none')
              (aa): Identity()
              (conv2): Conv2d(128, 128, kernel_size=(3, 3), stride=(1, 1), padding=(1, 1), bias=False)
              (bn2): InstanceNorm2d(128, eps=1e-05, momentum=0.1, affine=False, track_running_stats=False)
              (act2): GELU(approximate='none')
              (cbam): CBAM(
                (channel_attention): Channel_Attention(
                  (shared_mlp): Sequential(
                    (0): Flatten(start_dim=1, end_dim=-1)
                    (1): Linear(in_features=128, out_features=8, bias=True)
                    (2): ReLU(inplace=True)
                    (3): Linear(in_features=8, out_features=128, bias=True)
                  )
                )
                (spatial_attention): Spatial_Attention(
                  (compress): ChannelPool()
                  (spatial_attention): Sequential(
                    (0): Conv2d(2, 1, kernel_size=(7, 7), stride=(1, 1), padding=(3, 3), bias=False)
                    (1): BatchNorm2d(1, eps=1e-05, momentum=0.01, affine=True, track_running_stats=True)
                  )
                )
              )
            )
            (1): BasicBlock(
              (conv1): Conv2d(128, 128, kernel_size=(3, 3), stride=(1, 1), padding=(1, 1), bias=False)
              (bn1): InstanceNorm2d(128, eps=1e-05, momentum=0.1, affine=False, track_running_stats=False)
              (drop_block): Identity()
              (act1): GELU(approximate='none')
              (aa): Identity()
              (conv2): Conv2d(128, 128, kernel_size=(3, 3), stride=(1, 1), padding=(1, 1), bias=False)
              (bn2): InstanceNorm2d(128, eps=1e-05, momentum=0.1, affine=False, track_running_stats=False)
              (act2): GELU(approximate='none')
              (cbam): CBAM(
                (channel_attention): Channel_Attention(
                  (shared_mlp): Sequential(
                    (0): Flatten(start_dim=1, end_dim=-1)
                    (1): Linear(in_features=128, out_features=8, bias=True)
                    (2): ReLU(inplace=True)
                    (3): Linear(in_features=8, out_features=128, bias=True)
                  )
                )
                (spatial_attention): Spatial_Attention(
                  (compress): ChannelPool()
                  (spatial_attention): Sequential(
                    (0): Conv2d(2, 1, kernel_size=(7, 7), stride=(1, 1), padding=(3, 3), bias=False)
                    (1): BatchNorm2d(1, eps=1e-05, momentum=0.01, affine=True, track_running_stats=True)
                  )
                )
              )
            )
            (2): BasicBlock(
              (conv1): Conv2d(128, 128, kernel_size=(3, 3), stride=(1, 1), padding=(1, 1), bias=False)
              (bn1): InstanceNorm2d(128, eps=1e-05, momentum=0.1, affine=False, track_running_stats=False)
              (drop_block): Identity()
              (act1): GELU(approximate='none')
              (aa): Identity()
              (conv2): Conv2d(128, 128, kernel_size=(3, 3), stride=(1, 1), padding=(1, 1), bias=False)
              (bn2): InstanceNorm2d(128, eps=1e-05, momentum=0.1, affine=False, track_running_stats=False)
              (act2): GELU(approximate='none')
              (cbam): CBAM(
                (channel_attention): Channel_Attention(
                  (shared_mlp): Sequential(
                    (0): Flatten(start_dim=1, end_dim=-1)
                    (1): Linear(in_features=128, out_features=8, bias=True)
                    (2): ReLU(inplace=True)
                    (3): Linear(in_features=8, out_features=128, bias=True)
                  )
                )
                (spatial_attention): Spatial_Attention(
                  (compress): ChannelPool()
                  (spatial_attention): Sequential(
                    (0): Conv2d(2, 1, kernel_size=(7, 7), stride=(1, 1), padding=(3, 3), bias=False)
                    (1): BatchNorm2d(1, eps=1e-05, momentum=0.01, affine=True, track_running_stats=True)
                  )
                )
              )
            )
            (3): BasicBlock(
              (conv1): Conv2d(128, 128, kernel_size=(3, 3), stride=(1, 1), padding=(1, 1), bias=False)
              (bn1): InstanceNorm2d(128, eps=1e-05, momentum=0.1, affine=False, track_running_stats=False)
              (drop_block): Identity()
              (act1): GELU(approximate='none')
              (aa): Identity()
              (conv2): Conv2d(128, 128, kernel_size=(3, 3), stride=(1, 1), padding=(1, 1), bias=False)
              (bn2): InstanceNorm2d(128, eps=1e-05, momentum=0.1, affine=False, track_running_stats=False)
              (act2): GELU(approximate='none')
              (cbam): CBAM(
                (channel_attention): Channel_Attention(
                  (shared_mlp): Sequential(
                    (0): Flatten(start_dim=1, end_dim=-1)
                    (1): Linear(in_features=128, out_features=8, bias=True)
                    (2): ReLU(inplace=True)
                    (3): Linear(in_features=8, out_features=128, bias=True)
                  )
                )
                (spatial_attention): Spatial_Attention(
                  (compress): ChannelPool()
                  (spatial_attention): Sequential(
                    (0): Conv2d(2, 1, kernel_size=(7, 7), stride=(1, 1), padding=(3, 3), bias=False)
                    (1): BatchNorm2d(1, eps=1e-05, momentum=0.01, affine=True, track_running_stats=True)
                  )
                )
              )
            )
          )
          (2): Sequential(
            (0): BasicBlock(
              (conv1): Conv2d(256, 256, kernel_size=(3, 3), stride=(1, 1), padding=(1, 1), bias=False)
              (bn1): InstanceNorm2d(256, eps=1e-05, momentum=0.1, affine=False, track_running_stats=False)
              (drop_block): Identity()
              (act1): GELU(approximate='none')
              (aa): Identity()
              (conv2): Conv2d(256, 256, kernel_size=(3, 3), stride=(1, 1), padding=(1, 1), bias=False)
              (bn2): InstanceNorm2d(256, eps=1e-05, momentum=0.1, affine=False, track_running_stats=False)
              (act2): GELU(approximate='none')
              (cbam): CBAM(
                (channel_attention): Channel_Attention(
                  (shared_mlp): Sequential(
                    (0): Flatten(start_dim=1, end_dim=-1)
                    (1): Linear(in_features=256, out_features=16, bias=True)
                    (2): ReLU(inplace=True)
                    (3): Linear(in_features=16, out_features=256, bias=True)
                  )
                )
                (spatial_attention): Spatial_Attention(
                  (compress): ChannelPool()
                  (spatial_attention): Sequential(
                    (0): Conv2d(2, 1, kernel_size=(7, 7), stride=(1, 1), padding=(3, 3), bias=False)
                    (1): BatchNorm2d(1, eps=1e-05, momentum=0.01, affine=True, track_running_stats=True)
                  )
                )
              )
            )
            (1): BasicBlock(
              (conv1): Conv2d(256, 256, kernel_size=(3, 3), stride=(1, 1), padding=(1, 1), bias=False)
              (bn1): InstanceNorm2d(256, eps=1e-05, momentum=0.1, affine=False, track_running_stats=False)
              (drop_block): Identity()
              (act1): GELU(approximate='none')
              (aa): Identity()
              (conv2): Conv2d(256, 256, kernel_size=(3, 3), stride=(1, 1), padding=(1, 1), bias=False)
              (bn2): InstanceNorm2d(256, eps=1e-05, momentum=0.1, affine=False, track_running_stats=False)
              (act2): GELU(approximate='none')
              (cbam): CBAM(
                (channel_attention): Channel_Attention(
                  (shared_mlp): Sequential(
                    (0): Flatten(start_dim=1, end_dim=-1)
                    (1): Linear(in_features=256, out_features=16, bias=True)
                    (2): ReLU(inplace=True)
                    (3): Linear(in_features=16, out_features=256, bias=True)
                  )
                )
                (spatial_attention): Spatial_Attention(
                  (compress): ChannelPool()
                  (spatial_attention): Sequential(
                    (0): Conv2d(2, 1, kernel_size=(7, 7), stride=(1, 1), padding=(3, 3), bias=False)
                    (1): BatchNorm2d(1, eps=1e-05, momentum=0.01, affine=True, track_running_stats=True)
                  )
                )
              )
            )
            (2): BasicBlock(
              (conv1): Conv2d(256, 256, kernel_size=(3, 3), stride=(1, 1), padding=(1, 1), bias=False)
              (bn1): InstanceNorm2d(256, eps=1e-05, momentum=0.1, affine=False, track_running_stats=False)
              (drop_block): Identity()
              (act1): GELU(approximate='none')
              (aa): Identity()
              (conv2): Conv2d(256, 256, kernel_size=(3, 3), stride=(1, 1), padding=(1, 1), bias=False)
              (bn2): InstanceNorm2d(256, eps=1e-05, momentum=0.1, affine=False, track_running_stats=False)
              (act2): GELU(approximate='none')
              (cbam): CBAM(
                (channel_attention): Channel_Attention(
                  (shared_mlp): Sequential(
                    (0): Flatten(start_dim=1, end_dim=-1)
                    (1): Linear(in_features=256, out_features=16, bias=True)
                    (2): ReLU(inplace=True)
                    (3): Linear(in_features=16, out_features=256, bias=True)
                  )
                )
                (spatial_attention): Spatial_Attention(
                  (compress): ChannelPool()
                  (spatial_attention): Sequential(
                    (0): Conv2d(2, 1, kernel_size=(7, 7), stride=(1, 1), padding=(3, 3), bias=False)
                    (1): BatchNorm2d(1, eps=1e-05, momentum=0.01, affine=True, track_running_stats=True)
                  )
                )
              )
            )
            (3): BasicBlock(
              (conv1): Conv2d(256, 256, kernel_size=(3, 3), stride=(1, 1), padding=(1, 1), bias=False)
              (bn1): InstanceNorm2d(256, eps=1e-05, momentum=0.1, affine=False, track_running_stats=False)
              (drop_block): Identity()
              (act1): GELU(approximate='none')
              (aa): Identity()
              (conv2): Conv2d(256, 256, kernel_size=(3, 3), stride=(1, 1), padding=(1, 1), bias=False)
              (bn2): InstanceNorm2d(256, eps=1e-05, momentum=0.1, affine=False, track_running_stats=False)
              (act2): GELU(approximate='none')
              (cbam): CBAM(
                (channel_attention): Channel_Attention(
                  (shared_mlp): Sequential(
                    (0): Flatten(start_dim=1, end_dim=-1)
                    (1): Linear(in_features=256, out_features=16, bias=True)
                    (2): ReLU(inplace=True)
                    (3): Linear(in_features=16, out_features=256, bias=True)
                  )
                )
                (spatial_attention): Spatial_Attention(
                  (compress): ChannelPool()
                  (spatial_attention): Sequential(
                    (0): Conv2d(2, 1, kernel_size=(7, 7), stride=(1, 1), padding=(3, 3), bias=False)
                    (1): BatchNorm2d(1, eps=1e-05, momentum=0.01, affine=True, track_running_stats=True)
                  )
                )
              )
            )
          )
        )
        (fuse_layers): ModuleList(
          (0): ModuleList(
            (0): Identity()
            (1): Sequential(
              (0): Conv2d(128, 64, kernel_size=(1, 1), stride=(1, 1), bias=False)
              (1): BatchNorm2d(64, eps=1e-05, momentum=0.1, affine=True, track_running_stats=True)
              (2): Upsample(scale_factor=2.0, mode=nearest)
            )
            (2): Sequential(
              (0): Conv2d(256, 64, kernel_size=(1, 1), stride=(1, 1), bias=False)
              (1): BatchNorm2d(64, eps=1e-05, momentum=0.1, affine=True, track_running_stats=True)
              (2): Upsample(scale_factor=4.0, mode=nearest)
            )
          )
          (1): ModuleList(
            (0): Sequential(
              (0): Sequential(
                (0): Conv2d(64, 128, kernel_size=(3, 3), stride=(2, 2), padding=(1, 1), bias=False)
                (1): BatchNorm2d(128, eps=1e-05, momentum=0.1, affine=True, track_running_stats=True)
              )
            )
            (1): Identity()
            (2): Sequential(
              (0): Conv2d(256, 128, kernel_size=(1, 1), stride=(1, 1), bias=False)
              (1): BatchNorm2d(128, eps=1e-05, momentum=0.1, affine=True, track_running_stats=True)
              (2): Upsample(scale_factor=2.0, mode=nearest)
            )
          )
          (2): ModuleList(
            (0): Sequential(
              (0): Sequential(
                (0): Conv2d(64, 64, kernel_size=(3, 3), stride=(2, 2), padding=(1, 1), bias=False)
                (1): BatchNorm2d(64, eps=1e-05, momentum=0.1, affine=True, track_running_stats=True)
                (2): ReLU()
              )
              (1): Sequential(
                (0): Conv2d(64, 256, kernel_size=(3, 3), stride=(2, 2), padding=(1, 1), bias=False)
                (1): BatchNorm2d(256, eps=1e-05, momentum=0.1, affine=True, track_running_stats=True)
              )
            )
            (1): Sequential(
              (0): Sequential(
                (0): Conv2d(128, 256, kernel_size=(3, 3), stride=(2, 2), padding=(1, 1), bias=False)
                (1): BatchNorm2d(256, eps=1e-05, momentum=0.1, affine=True, track_running_stats=True)
              )
            )
            (2): Identity()
          )
        )
        (fuse_act): ReLU()
      )
    )
    (transition3): ModuleList(
      (0): Identity()
      (1): Identity()
      (2): Identity()
      (3): Sequential(
        (0): Sequential(
          (0): Conv2d(256, 512, kernel_size=(3, 3), stride=(2, 2), padding=(1, 1), bias=False)
          (1): BatchNorm2d(512, eps=1e-05, momentum=0.1, affine=True, track_running_stats=True)
          (2): ReLU(inplace=True)
        )
      )
    )
    (stage4): Sequential(
      (0): HighResolutionModule(
        (branches): ModuleList(
          (0): Sequential(
            (0): BasicBlock(
              (conv1): Conv2d(64, 64, kernel_size=(3, 3), stride=(1, 1), padding=(1, 1), bias=False)
              (bn1): InstanceNorm2d(64, eps=1e-05, momentum=0.1, affine=False, track_running_stats=False)
              (drop_block): Identity()
              (act1): GELU(approximate='none')
              (aa): Identity()
              (conv2): Conv2d(64, 64, kernel_size=(3, 3), stride=(1, 1), padding=(1, 1), bias=False)
              (bn2): InstanceNorm2d(64, eps=1e-05, momentum=0.1, affine=False, track_running_stats=False)
              (act2): GELU(approximate='none')
              (cbam): CBAM(
                (channel_attention): Channel_Attention(
                  (shared_mlp): Sequential(
                    (0): Flatten(start_dim=1, end_dim=-1)
                    (1): Linear(in_features=64, out_features=4, bias=True)
                    (2): ReLU(inplace=True)
                    (3): Linear(in_features=4, out_features=64, bias=True)
                  )
                )
                (spatial_attention): Spatial_Attention(
                  (compress): ChannelPool()
                  (spatial_attention): Sequential(
                    (0): Conv2d(2, 1, kernel_size=(7, 7), stride=(1, 1), padding=(3, 3), bias=False)
                    (1): BatchNorm2d(1, eps=1e-05, momentum=0.01, affine=True, track_running_stats=True)
                  )
                )
              )
            )
            (1): BasicBlock(
              (conv1): Conv2d(64, 64, kernel_size=(3, 3), stride=(1, 1), padding=(1, 1), bias=False)
              (bn1): InstanceNorm2d(64, eps=1e-05, momentum=0.1, affine=False, track_running_stats=False)
              (drop_block): Identity()
              (act1): GELU(approximate='none')
              (aa): Identity()
              (conv2): Conv2d(64, 64, kernel_size=(3, 3), stride=(1, 1), padding=(1, 1), bias=False)
              (bn2): InstanceNorm2d(64, eps=1e-05, momentum=0.1, affine=False, track_running_stats=False)
              (act2): GELU(approximate='none')
              (cbam): CBAM(
                (channel_attention): Channel_Attention(
                  (shared_mlp): Sequential(
                    (0): Flatten(start_dim=1, end_dim=-1)
                    (1): Linear(in_features=64, out_features=4, bias=True)
                    (2): ReLU(inplace=True)
                    (3): Linear(in_features=4, out_features=64, bias=True)
                  )
                )
                (spatial_attention): Spatial_Attention(
                  (compress): ChannelPool()
                  (spatial_attention): Sequential(
                    (0): Conv2d(2, 1, kernel_size=(7, 7), stride=(1, 1), padding=(3, 3), bias=False)
                    (1): BatchNorm2d(1, eps=1e-05, momentum=0.01, affine=True, track_running_stats=True)
                  )
                )
              )
            )
            (2): BasicBlock(
              (conv1): Conv2d(64, 64, kernel_size=(3, 3), stride=(1, 1), padding=(1, 1), bias=False)
              (bn1): InstanceNorm2d(64, eps=1e-05, momentum=0.1, affine=False, track_running_stats=False)
              (drop_block): Identity()
              (act1): GELU(approximate='none')
              (aa): Identity()
              (conv2): Conv2d(64, 64, kernel_size=(3, 3), stride=(1, 1), padding=(1, 1), bias=False)
              (bn2): InstanceNorm2d(64, eps=1e-05, momentum=0.1, affine=False, track_running_stats=False)
              (act2): GELU(approximate='none')
              (cbam): CBAM(
                (channel_attention): Channel_Attention(
                  (shared_mlp): Sequential(
                    (0): Flatten(start_dim=1, end_dim=-1)
                    (1): Linear(in_features=64, out_features=4, bias=True)
                    (2): ReLU(inplace=True)
                    (3): Linear(in_features=4, out_features=64, bias=True)
                  )
                )
                (spatial_attention): Spatial_Attention(
                  (compress): ChannelPool()
                  (spatial_attention): Sequential(
                    (0): Conv2d(2, 1, kernel_size=(7, 7), stride=(1, 1), padding=(3, 3), bias=False)
                    (1): BatchNorm2d(1, eps=1e-05, momentum=0.01, affine=True, track_running_stats=True)
                  )
                )
              )
            )
            (3): BasicBlock(
              (conv1): Conv2d(64, 64, kernel_size=(3, 3), stride=(1, 1), padding=(1, 1), bias=False)
              (bn1): InstanceNorm2d(64, eps=1e-05, momentum=0.1, affine=False, track_running_stats=False)
              (drop_block): Identity()
              (act1): GELU(approximate='none')
              (aa): Identity()
              (conv2): Conv2d(64, 64, kernel_size=(3, 3), stride=(1, 1), padding=(1, 1), bias=False)
              (bn2): InstanceNorm2d(64, eps=1e-05, momentum=0.1, affine=False, track_running_stats=False)
              (act2): GELU(approximate='none')
              (cbam): CBAM(
                (channel_attention): Channel_Attention(
                  (shared_mlp): Sequential(
                    (0): Flatten(start_dim=1, end_dim=-1)
                    (1): Linear(in_features=64, out_features=4, bias=True)
                    (2): ReLU(inplace=True)
                    (3): Linear(in_features=4, out_features=64, bias=True)
                  )
                )
                (spatial_attention): Spatial_Attention(
                  (compress): ChannelPool()
                  (spatial_attention): Sequential(
                    (0): Conv2d(2, 1, kernel_size=(7, 7), stride=(1, 1), padding=(3, 3), bias=False)
                    (1): BatchNorm2d(1, eps=1e-05, momentum=0.01, affine=True, track_running_stats=True)
                  )
                )
              )
            )
          )
          (1): Sequential(
            (0): BasicBlock(
              (conv1): Conv2d(128, 128, kernel_size=(3, 3), stride=(1, 1), padding=(1, 1), bias=False)
              (bn1): InstanceNorm2d(128, eps=1e-05, momentum=0.1, affine=False, track_running_stats=False)
              (drop_block): Identity()
              (act1): GELU(approximate='none')
              (aa): Identity()
              (conv2): Conv2d(128, 128, kernel_size=(3, 3), stride=(1, 1), padding=(1, 1), bias=False)
              (bn2): InstanceNorm2d(128, eps=1e-05, momentum=0.1, affine=False, track_running_stats=False)
              (act2): GELU(approximate='none')
              (cbam): CBAM(
                (channel_attention): Channel_Attention(
                  (shared_mlp): Sequential(
                    (0): Flatten(start_dim=1, end_dim=-1)
                    (1): Linear(in_features=128, out_features=8, bias=True)
                    (2): ReLU(inplace=True)
                    (3): Linear(in_features=8, out_features=128, bias=True)
                  )
                )
                (spatial_attention): Spatial_Attention(
                  (compress): ChannelPool()
                  (spatial_attention): Sequential(
                    (0): Conv2d(2, 1, kernel_size=(7, 7), stride=(1, 1), padding=(3, 3), bias=False)
                    (1): BatchNorm2d(1, eps=1e-05, momentum=0.01, affine=True, track_running_stats=True)
                  )
                )
              )
            )
            (1): BasicBlock(
              (conv1): Conv2d(128, 128, kernel_size=(3, 3), stride=(1, 1), padding=(1, 1), bias=False)
              (bn1): InstanceNorm2d(128, eps=1e-05, momentum=0.1, affine=False, track_running_stats=False)
              (drop_block): Identity()
              (act1): GELU(approximate='none')
              (aa): Identity()
              (conv2): Conv2d(128, 128, kernel_size=(3, 3), stride=(1, 1), padding=(1, 1), bias=False)
              (bn2): InstanceNorm2d(128, eps=1e-05, momentum=0.1, affine=False, track_running_stats=False)
              (act2): GELU(approximate='none')
              (cbam): CBAM(
                (channel_attention): Channel_Attention(
                  (shared_mlp): Sequential(
                    (0): Flatten(start_dim=1, end_dim=-1)
                    (1): Linear(in_features=128, out_features=8, bias=True)
                    (2): ReLU(inplace=True)
                    (3): Linear(in_features=8, out_features=128, bias=True)
                  )
                )
                (spatial_attention): Spatial_Attention(
                  (compress): ChannelPool()
                  (spatial_attention): Sequential(
                    (0): Conv2d(2, 1, kernel_size=(7, 7), stride=(1, 1), padding=(3, 3), bias=False)
                    (1): BatchNorm2d(1, eps=1e-05, momentum=0.01, affine=True, track_running_stats=True)
                  )
                )
              )
            )
            (2): BasicBlock(
              (conv1): Conv2d(128, 128, kernel_size=(3, 3), stride=(1, 1), padding=(1, 1), bias=False)
              (bn1): InstanceNorm2d(128, eps=1e-05, momentum=0.1, affine=False, track_running_stats=False)
              (drop_block): Identity()
              (act1): GELU(approximate='none')
              (aa): Identity()
              (conv2): Conv2d(128, 128, kernel_size=(3, 3), stride=(1, 1), padding=(1, 1), bias=False)
              (bn2): InstanceNorm2d(128, eps=1e-05, momentum=0.1, affine=False, track_running_stats=False)
              (act2): GELU(approximate='none')
              (cbam): CBAM(
                (channel_attention): Channel_Attention(
                  (shared_mlp): Sequential(
                    (0): Flatten(start_dim=1, end_dim=-1)
                    (1): Linear(in_features=128, out_features=8, bias=True)
                    (2): ReLU(inplace=True)
                    (3): Linear(in_features=8, out_features=128, bias=True)
                  )
                )
                (spatial_attention): Spatial_Attention(
                  (compress): ChannelPool()
                  (spatial_attention): Sequential(
                    (0): Conv2d(2, 1, kernel_size=(7, 7), stride=(1, 1), padding=(3, 3), bias=False)
                    (1): BatchNorm2d(1, eps=1e-05, momentum=0.01, affine=True, track_running_stats=True)
                  )
                )
              )
            )
            (3): BasicBlock(
              (conv1): Conv2d(128, 128, kernel_size=(3, 3), stride=(1, 1), padding=(1, 1), bias=False)
              (bn1): InstanceNorm2d(128, eps=1e-05, momentum=0.1, affine=False, track_running_stats=False)
              (drop_block): Identity()
              (act1): GELU(approximate='none')
              (aa): Identity()
              (conv2): Conv2d(128, 128, kernel_size=(3, 3), stride=(1, 1), padding=(1, 1), bias=False)
              (bn2): InstanceNorm2d(128, eps=1e-05, momentum=0.1, affine=False, track_running_stats=False)
              (act2): GELU(approximate='none')
              (cbam): CBAM(
                (channel_attention): Channel_Attention(
                  (shared_mlp): Sequential(
                    (0): Flatten(start_dim=1, end_dim=-1)
                    (1): Linear(in_features=128, out_features=8, bias=True)
                    (2): ReLU(inplace=True)
                    (3): Linear(in_features=8, out_features=128, bias=True)
                  )
                )
                (spatial_attention): Spatial_Attention(
                  (compress): ChannelPool()
                  (spatial_attention): Sequential(
                    (0): Conv2d(2, 1, kernel_size=(7, 7), stride=(1, 1), padding=(3, 3), bias=False)
                    (1): BatchNorm2d(1, eps=1e-05, momentum=0.01, affine=True, track_running_stats=True)
                  )
                )
              )
            )
          )
          (2): Sequential(
            (0): BasicBlock(
              (conv1): Conv2d(256, 256, kernel_size=(3, 3), stride=(1, 1), padding=(1, 1), bias=False)
              (bn1): InstanceNorm2d(256, eps=1e-05, momentum=0.1, affine=False, track_running_stats=False)
              (drop_block): Identity()
              (act1): GELU(approximate='none')
              (aa): Identity()
              (conv2): Conv2d(256, 256, kernel_size=(3, 3), stride=(1, 1), padding=(1, 1), bias=False)
              (bn2): InstanceNorm2d(256, eps=1e-05, momentum=0.1, affine=False, track_running_stats=False)
              (act2): GELU(approximate='none')
              (cbam): CBAM(
                (channel_attention): Channel_Attention(
                  (shared_mlp): Sequential(
                    (0): Flatten(start_dim=1, end_dim=-1)
                    (1): Linear(in_features=256, out_features=16, bias=True)
                    (2): ReLU(inplace=True)
                    (3): Linear(in_features=16, out_features=256, bias=True)
                  )
                )
                (spatial_attention): Spatial_Attention(
                  (compress): ChannelPool()
                  (spatial_attention): Sequential(
                    (0): Conv2d(2, 1, kernel_size=(7, 7), stride=(1, 1), padding=(3, 3), bias=False)
                    (1): BatchNorm2d(1, eps=1e-05, momentum=0.01, affine=True, track_running_stats=True)
                  )
                )
              )
            )
            (1): BasicBlock(
              (conv1): Conv2d(256, 256, kernel_size=(3, 3), stride=(1, 1), padding=(1, 1), bias=False)
              (bn1): InstanceNorm2d(256, eps=1e-05, momentum=0.1, affine=False, track_running_stats=False)
              (drop_block): Identity()
              (act1): GELU(approximate='none')
              (aa): Identity()
              (conv2): Conv2d(256, 256, kernel_size=(3, 3), stride=(1, 1), padding=(1, 1), bias=False)
              (bn2): InstanceNorm2d(256, eps=1e-05, momentum=0.1, affine=False, track_running_stats=False)
              (act2): GELU(approximate='none')
              (cbam): CBAM(
                (channel_attention): Channel_Attention(
                  (shared_mlp): Sequential(
                    (0): Flatten(start_dim=1, end_dim=-1)
                    (1): Linear(in_features=256, out_features=16, bias=True)
                    (2): ReLU(inplace=True)
                    (3): Linear(in_features=16, out_features=256, bias=True)
                  )
                )
                (spatial_attention): Spatial_Attention(
                  (compress): ChannelPool()
                  (spatial_attention): Sequential(
                    (0): Conv2d(2, 1, kernel_size=(7, 7), stride=(1, 1), padding=(3, 3), bias=False)
                    (1): BatchNorm2d(1, eps=1e-05, momentum=0.01, affine=True, track_running_stats=True)
                  )
                )
              )
            )
            (2): BasicBlock(
              (conv1): Conv2d(256, 256, kernel_size=(3, 3), stride=(1, 1), padding=(1, 1), bias=False)
              (bn1): InstanceNorm2d(256, eps=1e-05, momentum=0.1, affine=False, track_running_stats=False)
              (drop_block): Identity()
              (act1): GELU(approximate='none')
              (aa): Identity()
              (conv2): Conv2d(256, 256, kernel_size=(3, 3), stride=(1, 1), padding=(1, 1), bias=False)
              (bn2): InstanceNorm2d(256, eps=1e-05, momentum=0.1, affine=False, track_running_stats=False)
              (act2): GELU(approximate='none')
              (cbam): CBAM(
                (channel_attention): Channel_Attention(
                  (shared_mlp): Sequential(
                    (0): Flatten(start_dim=1, end_dim=-1)
                    (1): Linear(in_features=256, out_features=16, bias=True)
                    (2): ReLU(inplace=True)
                    (3): Linear(in_features=16, out_features=256, bias=True)
                  )
                )
                (spatial_attention): Spatial_Attention(
                  (compress): ChannelPool()
                  (spatial_attention): Sequential(
                    (0): Conv2d(2, 1, kernel_size=(7, 7), stride=(1, 1), padding=(3, 3), bias=False)
                    (1): BatchNorm2d(1, eps=1e-05, momentum=0.01, affine=True, track_running_stats=True)
                  )
                )
              )
            )
            (3): BasicBlock(
              (conv1): Conv2d(256, 256, kernel_size=(3, 3), stride=(1, 1), padding=(1, 1), bias=False)
              (bn1): InstanceNorm2d(256, eps=1e-05, momentum=0.1, affine=False, track_running_stats=False)
              (drop_block): Identity()
              (act1): GELU(approximate='none')
              (aa): Identity()
              (conv2): Conv2d(256, 256, kernel_size=(3, 3), stride=(1, 1), padding=(1, 1), bias=False)
              (bn2): InstanceNorm2d(256, eps=1e-05, momentum=0.1, affine=False, track_running_stats=False)
              (act2): GELU(approximate='none')
              (cbam): CBAM(
                (channel_attention): Channel_Attention(
                  (shared_mlp): Sequential(
                    (0): Flatten(start_dim=1, end_dim=-1)
                    (1): Linear(in_features=256, out_features=16, bias=True)
                    (2): ReLU(inplace=True)
                    (3): Linear(in_features=16, out_features=256, bias=True)
                  )
                )
                (spatial_attention): Spatial_Attention(
                  (compress): ChannelPool()
                  (spatial_attention): Sequential(
                    (0): Conv2d(2, 1, kernel_size=(7, 7), stride=(1, 1), padding=(3, 3), bias=False)
                    (1): BatchNorm2d(1, eps=1e-05, momentum=0.01, affine=True, track_running_stats=True)
                  )
                )
              )
            )
          )
          (3): Sequential(
            (0): BasicBlock(
              (conv1): Conv2d(512, 512, kernel_size=(3, 3), stride=(1, 1), padding=(1, 1), bias=False)
              (bn1): InstanceNorm2d(512, eps=1e-05, momentum=0.1, affine=False, track_running_stats=False)
              (drop_block): Identity()
              (act1): GELU(approximate='none')
              (aa): Identity()
              (conv2): Conv2d(512, 512, kernel_size=(3, 3), stride=(1, 1), padding=(1, 1), bias=False)
              (bn2): InstanceNorm2d(512, eps=1e-05, momentum=0.1, affine=False, track_running_stats=False)
              (act2): GELU(approximate='none')
              (cbam): CBAM(
                (channel_attention): Channel_Attention(
                  (shared_mlp): Sequential(
                    (0): Flatten(start_dim=1, end_dim=-1)
                    (1): Linear(in_features=512, out_features=32, bias=True)
                    (2): ReLU(inplace=True)
                    (3): Linear(in_features=32, out_features=512, bias=True)
                  )
                )
                (spatial_attention): Spatial_Attention(
                  (compress): ChannelPool()
                  (spatial_attention): Sequential(
                    (0): Conv2d(2, 1, kernel_size=(7, 7), stride=(1, 1), padding=(3, 3), bias=False)
                    (1): BatchNorm2d(1, eps=1e-05, momentum=0.01, affine=True, track_running_stats=True)
                  )
                )
              )
            )
            (1): BasicBlock(
              (conv1): Conv2d(512, 512, kernel_size=(3, 3), stride=(1, 1), padding=(1, 1), bias=False)
              (bn1): InstanceNorm2d(512, eps=1e-05, momentum=0.1, affine=False, track_running_stats=False)
              (drop_block): Identity()
              (act1): GELU(approximate='none')
              (aa): Identity()
              (conv2): Conv2d(512, 512, kernel_size=(3, 3), stride=(1, 1), padding=(1, 1), bias=False)
              (bn2): InstanceNorm2d(512, eps=1e-05, momentum=0.1, affine=False, track_running_stats=False)
              (act2): GELU(approximate='none')
              (cbam): CBAM(
                (channel_attention): Channel_Attention(
                  (shared_mlp): Sequential(
                    (0): Flatten(start_dim=1, end_dim=-1)
                    (1): Linear(in_features=512, out_features=32, bias=True)
                    (2): ReLU(inplace=True)
                    (3): Linear(in_features=32, out_features=512, bias=True)
                  )
                )
                (spatial_attention): Spatial_Attention(
                  (compress): ChannelPool()
                  (spatial_attention): Sequential(
                    (0): Conv2d(2, 1, kernel_size=(7, 7), stride=(1, 1), padding=(3, 3), bias=False)
                    (1): BatchNorm2d(1, eps=1e-05, momentum=0.01, affine=True, track_running_stats=True)
                  )
                )
              )
            )
            (2): BasicBlock(
              (conv1): Conv2d(512, 512, kernel_size=(3, 3), stride=(1, 1), padding=(1, 1), bias=False)
              (bn1): InstanceNorm2d(512, eps=1e-05, momentum=0.1, affine=False, track_running_stats=False)
              (drop_block): Identity()
              (act1): GELU(approximate='none')
              (aa): Identity()
              (conv2): Conv2d(512, 512, kernel_size=(3, 3), stride=(1, 1), padding=(1, 1), bias=False)
              (bn2): InstanceNorm2d(512, eps=1e-05, momentum=0.1, affine=False, track_running_stats=False)
              (act2): GELU(approximate='none')
              (cbam): CBAM(
                (channel_attention): Channel_Attention(
                  (shared_mlp): Sequential(
                    (0): Flatten(start_dim=1, end_dim=-1)
                    (1): Linear(in_features=512, out_features=32, bias=True)
                    (2): ReLU(inplace=True)
                    (3): Linear(in_features=32, out_features=512, bias=True)
                  )
                )
                (spatial_attention): Spatial_Attention(
                  (compress): ChannelPool()
                  (spatial_attention): Sequential(
                    (0): Conv2d(2, 1, kernel_size=(7, 7), stride=(1, 1), padding=(3, 3), bias=False)
                    (1): BatchNorm2d(1, eps=1e-05, momentum=0.01, affine=True, track_running_stats=True)
                  )
                )
              )
            )
            (3): BasicBlock(
              (conv1): Conv2d(512, 512, kernel_size=(3, 3), stride=(1, 1), padding=(1, 1), bias=False)
              (bn1): InstanceNorm2d(512, eps=1e-05, momentum=0.1, affine=False, track_running_stats=False)
              (drop_block): Identity()
              (act1): GELU(approximate='none')
              (aa): Identity()
              (conv2): Conv2d(512, 512, kernel_size=(3, 3), stride=(1, 1), padding=(1, 1), bias=False)
              (bn2): InstanceNorm2d(512, eps=1e-05, momentum=0.1, affine=False, track_running_stats=False)
              (act2): GELU(approximate='none')
              (cbam): CBAM(
                (channel_attention): Channel_Attention(
                  (shared_mlp): Sequential(
                    (0): Flatten(start_dim=1, end_dim=-1)
                    (1): Linear(in_features=512, out_features=32, bias=True)
                    (2): ReLU(inplace=True)
                    (3): Linear(in_features=32, out_features=512, bias=True)
                  )
                )
                (spatial_attention): Spatial_Attention(
                  (compress): ChannelPool()
                  (spatial_attention): Sequential(
                    (0): Conv2d(2, 1, kernel_size=(7, 7), stride=(1, 1), padding=(3, 3), bias=False)
                    (1): BatchNorm2d(1, eps=1e-05, momentum=0.01, affine=True, track_running_stats=True)
                  )
                )
              )
            )
          )
        )
        (fuse_layers): ModuleList(
          (0): ModuleList(
            (0): Identity()
            (1): Sequential(
              (0): Conv2d(128, 64, kernel_size=(1, 1), stride=(1, 1), bias=False)
              (1): BatchNorm2d(64, eps=1e-05, momentum=0.1, affine=True, track_running_stats=True)
              (2): Upsample(scale_factor=2.0, mode=nearest)
            )
            (2): Sequential(
              (0): Conv2d(256, 64, kernel_size=(1, 1), stride=(1, 1), bias=False)
              (1): BatchNorm2d(64, eps=1e-05, momentum=0.1, affine=True, track_running_stats=True)
              (2): Upsample(scale_factor=4.0, mode=nearest)
            )
            (3): Sequential(
              (0): Conv2d(512, 64, kernel_size=(1, 1), stride=(1, 1), bias=False)
              (1): BatchNorm2d(64, eps=1e-05, momentum=0.1, affine=True, track_running_stats=True)
              (2): Upsample(scale_factor=8.0, mode=nearest)
            )
          )
          (1): ModuleList(
            (0): Sequential(
              (0): Sequential(
                (0): Conv2d(64, 128, kernel_size=(3, 3), stride=(2, 2), padding=(1, 1), bias=False)
                (1): BatchNorm2d(128, eps=1e-05, momentum=0.1, affine=True, track_running_stats=True)
              )
            )
            (1): Identity()
            (2): Sequential(
              (0): Conv2d(256, 128, kernel_size=(1, 1), stride=(1, 1), bias=False)
              (1): BatchNorm2d(128, eps=1e-05, momentum=0.1, affine=True, track_running_stats=True)
              (2): Upsample(scale_factor=2.0, mode=nearest)
            )
            (3): Sequential(
              (0): Conv2d(512, 128, kernel_size=(1, 1), stride=(1, 1), bias=False)
              (1): BatchNorm2d(128, eps=1e-05, momentum=0.1, affine=True, track_running_stats=True)
              (2): Upsample(scale_factor=4.0, mode=nearest)
            )
          )
          (2): ModuleList(
            (0): Sequential(
              (0): Sequential(
                (0): Conv2d(64, 64, kernel_size=(3, 3), stride=(2, 2), padding=(1, 1), bias=False)
                (1): BatchNorm2d(64, eps=1e-05, momentum=0.1, affine=True, track_running_stats=True)
                (2): ReLU()
              )
              (1): Sequential(
                (0): Conv2d(64, 256, kernel_size=(3, 3), stride=(2, 2), padding=(1, 1), bias=False)
                (1): BatchNorm2d(256, eps=1e-05, momentum=0.1, affine=True, track_running_stats=True)
              )
            )
            (1): Sequential(
              (0): Sequential(
                (0): Conv2d(128, 256, kernel_size=(3, 3), stride=(2, 2), padding=(1, 1), bias=False)
                (1): BatchNorm2d(256, eps=1e-05, momentum=0.1, affine=True, track_running_stats=True)
              )
            )
            (2): Identity()
            (3): Sequential(
              (0): Conv2d(512, 256, kernel_size=(1, 1), stride=(1, 1), bias=False)
              (1): BatchNorm2d(256, eps=1e-05, momentum=0.1, affine=True, track_running_stats=True)
              (2): Upsample(scale_factor=2.0, mode=nearest)
            )
          )
          (3): ModuleList(
            (0): Sequential(
              (0): Sequential(
                (0): Conv2d(64, 64, kernel_size=(3, 3), stride=(2, 2), padding=(1, 1), bias=False)
                (1): BatchNorm2d(64, eps=1e-05, momentum=0.1, affine=True, track_running_stats=True)
                (2): ReLU()
              )
              (1): Sequential(
                (0): Conv2d(64, 64, kernel_size=(3, 3), stride=(2, 2), padding=(1, 1), bias=False)
                (1): BatchNorm2d(64, eps=1e-05, momentum=0.1, affine=True, track_running_stats=True)
                (2): ReLU()
              )
              (2): Sequential(
                (0): Conv2d(64, 512, kernel_size=(3, 3), stride=(2, 2), padding=(1, 1), bias=False)
                (1): BatchNorm2d(512, eps=1e-05, momentum=0.1, affine=True, track_running_stats=True)
              )
            )
            (1): Sequential(
              (0): Sequential(
                (0): Conv2d(128, 128, kernel_size=(3, 3), stride=(2, 2), padding=(1, 1), bias=False)
                (1): BatchNorm2d(128, eps=1e-05, momentum=0.1, affine=True, track_running_stats=True)
                (2): ReLU()
              )
              (1): Sequential(
                (0): Conv2d(128, 512, kernel_size=(3, 3), stride=(2, 2), padding=(1, 1), bias=False)
                (1): BatchNorm2d(512, eps=1e-05, momentum=0.1, affine=True, track_running_stats=True)
              )
            )
            (2): Sequential(
              (0): Sequential(
                (0): Conv2d(256, 512, kernel_size=(3, 3), stride=(2, 2), padding=(1, 1), bias=False)
                (1): BatchNorm2d(512, eps=1e-05, momentum=0.1, affine=True, track_running_stats=True)
              )
            )
            (3): Identity()
          )
        )
        (fuse_act): ReLU()
      )
      (1): HighResolutionModule(
        (branches): ModuleList(
          (0): Sequential(
            (0): BasicBlock(
              (conv1): Conv2d(64, 64, kernel_size=(3, 3), stride=(1, 1), padding=(1, 1), bias=False)
              (bn1): InstanceNorm2d(64, eps=1e-05, momentum=0.1, affine=False, track_running_stats=False)
              (drop_block): Identity()
              (act1): GELU(approximate='none')
              (aa): Identity()
              (conv2): Conv2d(64, 64, kernel_size=(3, 3), stride=(1, 1), padding=(1, 1), bias=False)
              (bn2): InstanceNorm2d(64, eps=1e-05, momentum=0.1, affine=False, track_running_stats=False)
              (act2): GELU(approximate='none')
              (cbam): CBAM(
                (channel_attention): Channel_Attention(
                  (shared_mlp): Sequential(
                    (0): Flatten(start_dim=1, end_dim=-1)
                    (1): Linear(in_features=64, out_features=4, bias=True)
                    (2): ReLU(inplace=True)
                    (3): Linear(in_features=4, out_features=64, bias=True)
                  )
                )
                (spatial_attention): Spatial_Attention(
                  (compress): ChannelPool()
                  (spatial_attention): Sequential(
                    (0): Conv2d(2, 1, kernel_size=(7, 7), stride=(1, 1), padding=(3, 3), bias=False)
                    (1): BatchNorm2d(1, eps=1e-05, momentum=0.01, affine=True, track_running_stats=True)
                  )
                )
              )
            )
            (1): BasicBlock(
              (conv1): Conv2d(64, 64, kernel_size=(3, 3), stride=(1, 1), padding=(1, 1), bias=False)
              (bn1): InstanceNorm2d(64, eps=1e-05, momentum=0.1, affine=False, track_running_stats=False)
              (drop_block): Identity()
              (act1): GELU(approximate='none')
              (aa): Identity()
              (conv2): Conv2d(64, 64, kernel_size=(3, 3), stride=(1, 1), padding=(1, 1), bias=False)
              (bn2): InstanceNorm2d(64, eps=1e-05, momentum=0.1, affine=False, track_running_stats=False)
              (act2): GELU(approximate='none')
              (cbam): CBAM(
                (channel_attention): Channel_Attention(
                  (shared_mlp): Sequential(
                    (0): Flatten(start_dim=1, end_dim=-1)
                    (1): Linear(in_features=64, out_features=4, bias=True)
                    (2): ReLU(inplace=True)
                    (3): Linear(in_features=4, out_features=64, bias=True)
                  )
                )
                (spatial_attention): Spatial_Attention(
                  (compress): ChannelPool()
                  (spatial_attention): Sequential(
                    (0): Conv2d(2, 1, kernel_size=(7, 7), stride=(1, 1), padding=(3, 3), bias=False)
                    (1): BatchNorm2d(1, eps=1e-05, momentum=0.01, affine=True, track_running_stats=True)
                  )
                )
              )
            )
            (2): BasicBlock(
              (conv1): Conv2d(64, 64, kernel_size=(3, 3), stride=(1, 1), padding=(1, 1), bias=False)
              (bn1): InstanceNorm2d(64, eps=1e-05, momentum=0.1, affine=False, track_running_stats=False)
              (drop_block): Identity()
              (act1): GELU(approximate='none')
              (aa): Identity()
              (conv2): Conv2d(64, 64, kernel_size=(3, 3), stride=(1, 1), padding=(1, 1), bias=False)
              (bn2): InstanceNorm2d(64, eps=1e-05, momentum=0.1, affine=False, track_running_stats=False)
              (act2): GELU(approximate='none')
              (cbam): CBAM(
                (channel_attention): Channel_Attention(
                  (shared_mlp): Sequential(
                    (0): Flatten(start_dim=1, end_dim=-1)
                    (1): Linear(in_features=64, out_features=4, bias=True)
                    (2): ReLU(inplace=True)
                    (3): Linear(in_features=4, out_features=64, bias=True)
                  )
                )
                (spatial_attention): Spatial_Attention(
                  (compress): ChannelPool()
                  (spatial_attention): Sequential(
                    (0): Conv2d(2, 1, kernel_size=(7, 7), stride=(1, 1), padding=(3, 3), bias=False)
                    (1): BatchNorm2d(1, eps=1e-05, momentum=0.01, affine=True, track_running_stats=True)
                  )
                )
              )
            )
            (3): BasicBlock(
              (conv1): Conv2d(64, 64, kernel_size=(3, 3), stride=(1, 1), padding=(1, 1), bias=False)
              (bn1): InstanceNorm2d(64, eps=1e-05, momentum=0.1, affine=False, track_running_stats=False)
              (drop_block): Identity()
              (act1): GELU(approximate='none')
              (aa): Identity()
              (conv2): Conv2d(64, 64, kernel_size=(3, 3), stride=(1, 1), padding=(1, 1), bias=False)
              (bn2): InstanceNorm2d(64, eps=1e-05, momentum=0.1, affine=False, track_running_stats=False)
              (act2): GELU(approximate='none')
              (cbam): CBAM(
                (channel_attention): Channel_Attention(
                  (shared_mlp): Sequential(
                    (0): Flatten(start_dim=1, end_dim=-1)
                    (1): Linear(in_features=64, out_features=4, bias=True)
                    (2): ReLU(inplace=True)
                    (3): Linear(in_features=4, out_features=64, bias=True)
                  )
                )
                (spatial_attention): Spatial_Attention(
                  (compress): ChannelPool()
                  (spatial_attention): Sequential(
                    (0): Conv2d(2, 1, kernel_size=(7, 7), stride=(1, 1), padding=(3, 3), bias=False)
                    (1): BatchNorm2d(1, eps=1e-05, momentum=0.01, affine=True, track_running_stats=True)
                  )
                )
              )
            )
          )
          (1): Sequential(
            (0): BasicBlock(
              (conv1): Conv2d(128, 128, kernel_size=(3, 3), stride=(1, 1), padding=(1, 1), bias=False)
              (bn1): InstanceNorm2d(128, eps=1e-05, momentum=0.1, affine=False, track_running_stats=False)
              (drop_block): Identity()
              (act1): GELU(approximate='none')
              (aa): Identity()
              (conv2): Conv2d(128, 128, kernel_size=(3, 3), stride=(1, 1), padding=(1, 1), bias=False)
              (bn2): InstanceNorm2d(128, eps=1e-05, momentum=0.1, affine=False, track_running_stats=False)
              (act2): GELU(approximate='none')
              (cbam): CBAM(
                (channel_attention): Channel_Attention(
                  (shared_mlp): Sequential(
                    (0): Flatten(start_dim=1, end_dim=-1)
                    (1): Linear(in_features=128, out_features=8, bias=True)
                    (2): ReLU(inplace=True)
                    (3): Linear(in_features=8, out_features=128, bias=True)
                  )
                )
                (spatial_attention): Spatial_Attention(
                  (compress): ChannelPool()
                  (spatial_attention): Sequential(
                    (0): Conv2d(2, 1, kernel_size=(7, 7), stride=(1, 1), padding=(3, 3), bias=False)
                    (1): BatchNorm2d(1, eps=1e-05, momentum=0.01, affine=True, track_running_stats=True)
                  )
                )
              )
            )
            (1): BasicBlock(
              (conv1): Conv2d(128, 128, kernel_size=(3, 3), stride=(1, 1), padding=(1, 1), bias=False)
              (bn1): InstanceNorm2d(128, eps=1e-05, momentum=0.1, affine=False, track_running_stats=False)
              (drop_block): Identity()
              (act1): GELU(approximate='none')
              (aa): Identity()
              (conv2): Conv2d(128, 128, kernel_size=(3, 3), stride=(1, 1), padding=(1, 1), bias=False)
              (bn2): InstanceNorm2d(128, eps=1e-05, momentum=0.1, affine=False, track_running_stats=False)
              (act2): GELU(approximate='none')
              (cbam): CBAM(
                (channel_attention): Channel_Attention(
                  (shared_mlp): Sequential(
                    (0): Flatten(start_dim=1, end_dim=-1)
                    (1): Linear(in_features=128, out_features=8, bias=True)
                    (2): ReLU(inplace=True)
                    (3): Linear(in_features=8, out_features=128, bias=True)
                  )
                )
                (spatial_attention): Spatial_Attention(
                  (compress): ChannelPool()
                  (spatial_attention): Sequential(
                    (0): Conv2d(2, 1, kernel_size=(7, 7), stride=(1, 1), padding=(3, 3), bias=False)
                    (1): BatchNorm2d(1, eps=1e-05, momentum=0.01, affine=True, track_running_stats=True)
                  )
                )
              )
            )
            (2): BasicBlock(
              (conv1): Conv2d(128, 128, kernel_size=(3, 3), stride=(1, 1), padding=(1, 1), bias=False)
              (bn1): InstanceNorm2d(128, eps=1e-05, momentum=0.1, affine=False, track_running_stats=False)
              (drop_block): Identity()
              (act1): GELU(approximate='none')
              (aa): Identity()
              (conv2): Conv2d(128, 128, kernel_size=(3, 3), stride=(1, 1), padding=(1, 1), bias=False)
              (bn2): InstanceNorm2d(128, eps=1e-05, momentum=0.1, affine=False, track_running_stats=False)
              (act2): GELU(approximate='none')
              (cbam): CBAM(
                (channel_attention): Channel_Attention(
                  (shared_mlp): Sequential(
                    (0): Flatten(start_dim=1, end_dim=-1)
                    (1): Linear(in_features=128, out_features=8, bias=True)
                    (2): ReLU(inplace=True)
                    (3): Linear(in_features=8, out_features=128, bias=True)
                  )
                )
                (spatial_attention): Spatial_Attention(
                  (compress): ChannelPool()
                  (spatial_attention): Sequential(
                    (0): Conv2d(2, 1, kernel_size=(7, 7), stride=(1, 1), padding=(3, 3), bias=False)
                    (1): BatchNorm2d(1, eps=1e-05, momentum=0.01, affine=True, track_running_stats=True)
                  )
                )
              )
            )
            (3): BasicBlock(
              (conv1): Conv2d(128, 128, kernel_size=(3, 3), stride=(1, 1), padding=(1, 1), bias=False)
              (bn1): InstanceNorm2d(128, eps=1e-05, momentum=0.1, affine=False, track_running_stats=False)
              (drop_block): Identity()
              (act1): GELU(approximate='none')
              (aa): Identity()
              (conv2): Conv2d(128, 128, kernel_size=(3, 3), stride=(1, 1), padding=(1, 1), bias=False)
              (bn2): InstanceNorm2d(128, eps=1e-05, momentum=0.1, affine=False, track_running_stats=False)
              (act2): GELU(approximate='none')
              (cbam): CBAM(
                (channel_attention): Channel_Attention(
                  (shared_mlp): Sequential(
                    (0): Flatten(start_dim=1, end_dim=-1)
                    (1): Linear(in_features=128, out_features=8, bias=True)
                    (2): ReLU(inplace=True)
                    (3): Linear(in_features=8, out_features=128, bias=True)
                  )
                )
                (spatial_attention): Spatial_Attention(
                  (compress): ChannelPool()
                  (spatial_attention): Sequential(
                    (0): Conv2d(2, 1, kernel_size=(7, 7), stride=(1, 1), padding=(3, 3), bias=False)
                    (1): BatchNorm2d(1, eps=1e-05, momentum=0.01, affine=True, track_running_stats=True)
                  )
                )
              )
            )
          )
          (2): Sequential(
            (0): BasicBlock(
              (conv1): Conv2d(256, 256, kernel_size=(3, 3), stride=(1, 1), padding=(1, 1), bias=False)
              (bn1): InstanceNorm2d(256, eps=1e-05, momentum=0.1, affine=False, track_running_stats=False)
              (drop_block): Identity()
              (act1): GELU(approximate='none')
              (aa): Identity()
              (conv2): Conv2d(256, 256, kernel_size=(3, 3), stride=(1, 1), padding=(1, 1), bias=False)
              (bn2): InstanceNorm2d(256, eps=1e-05, momentum=0.1, affine=False, track_running_stats=False)
              (act2): GELU(approximate='none')
              (cbam): CBAM(
                (channel_attention): Channel_Attention(
                  (shared_mlp): Sequential(
                    (0): Flatten(start_dim=1, end_dim=-1)
                    (1): Linear(in_features=256, out_features=16, bias=True)
                    (2): ReLU(inplace=True)
                    (3): Linear(in_features=16, out_features=256, bias=True)
                  )
                )
                (spatial_attention): Spatial_Attention(
                  (compress): ChannelPool()
                  (spatial_attention): Sequential(
                    (0): Conv2d(2, 1, kernel_size=(7, 7), stride=(1, 1), padding=(3, 3), bias=False)
                    (1): BatchNorm2d(1, eps=1e-05, momentum=0.01, affine=True, track_running_stats=True)
                  )
                )
              )
            )
            (1): BasicBlock(
              (conv1): Conv2d(256, 256, kernel_size=(3, 3), stride=(1, 1), padding=(1, 1), bias=False)
              (bn1): InstanceNorm2d(256, eps=1e-05, momentum=0.1, affine=False, track_running_stats=False)
              (drop_block): Identity()
              (act1): GELU(approximate='none')
              (aa): Identity()
              (conv2): Conv2d(256, 256, kernel_size=(3, 3), stride=(1, 1), padding=(1, 1), bias=False)
              (bn2): InstanceNorm2d(256, eps=1e-05, momentum=0.1, affine=False, track_running_stats=False)
              (act2): GELU(approximate='none')
              (cbam): CBAM(
                (channel_attention): Channel_Attention(
                  (shared_mlp): Sequential(
                    (0): Flatten(start_dim=1, end_dim=-1)
                    (1): Linear(in_features=256, out_features=16, bias=True)
                    (2): ReLU(inplace=True)
                    (3): Linear(in_features=16, out_features=256, bias=True)
                  )
                )
                (spatial_attention): Spatial_Attention(
                  (compress): ChannelPool()
                  (spatial_attention): Sequential(
                    (0): Conv2d(2, 1, kernel_size=(7, 7), stride=(1, 1), padding=(3, 3), bias=False)
                    (1): BatchNorm2d(1, eps=1e-05, momentum=0.01, affine=True, track_running_stats=True)
                  )
                )
              )
            )
            (2): BasicBlock(
              (conv1): Conv2d(256, 256, kernel_size=(3, 3), stride=(1, 1), padding=(1, 1), bias=False)
              (bn1): InstanceNorm2d(256, eps=1e-05, momentum=0.1, affine=False, track_running_stats=False)
              (drop_block): Identity()
              (act1): GELU(approximate='none')
              (aa): Identity()
              (conv2): Conv2d(256, 256, kernel_size=(3, 3), stride=(1, 1), padding=(1, 1), bias=False)
              (bn2): InstanceNorm2d(256, eps=1e-05, momentum=0.1, affine=False, track_running_stats=False)
              (act2): GELU(approximate='none')
              (cbam): CBAM(
                (channel_attention): Channel_Attention(
                  (shared_mlp): Sequential(
                    (0): Flatten(start_dim=1, end_dim=-1)
                    (1): Linear(in_features=256, out_features=16, bias=True)
                    (2): ReLU(inplace=True)
                    (3): Linear(in_features=16, out_features=256, bias=True)
                  )
                )
                (spatial_attention): Spatial_Attention(
                  (compress): ChannelPool()
                  (spatial_attention): Sequential(
                    (0): Conv2d(2, 1, kernel_size=(7, 7), stride=(1, 1), padding=(3, 3), bias=False)
                    (1): BatchNorm2d(1, eps=1e-05, momentum=0.01, affine=True, track_running_stats=True)
                  )
                )
              )
            )
            (3): BasicBlock(
              (conv1): Conv2d(256, 256, kernel_size=(3, 3), stride=(1, 1), padding=(1, 1), bias=False)
              (bn1): InstanceNorm2d(256, eps=1e-05, momentum=0.1, affine=False, track_running_stats=False)
              (drop_block): Identity()
              (act1): GELU(approximate='none')
              (aa): Identity()
              (conv2): Conv2d(256, 256, kernel_size=(3, 3), stride=(1, 1), padding=(1, 1), bias=False)
              (bn2): InstanceNorm2d(256, eps=1e-05, momentum=0.1, affine=False, track_running_stats=False)
              (act2): GELU(approximate='none')
              (cbam): CBAM(
                (channel_attention): Channel_Attention(
                  (shared_mlp): Sequential(
                    (0): Flatten(start_dim=1, end_dim=-1)
                    (1): Linear(in_features=256, out_features=16, bias=True)
                    (2): ReLU(inplace=True)
                    (3): Linear(in_features=16, out_features=256, bias=True)
                  )
                )
                (spatial_attention): Spatial_Attention(
                  (compress): ChannelPool()
                  (spatial_attention): Sequential(
                    (0): Conv2d(2, 1, kernel_size=(7, 7), stride=(1, 1), padding=(3, 3), bias=False)
                    (1): BatchNorm2d(1, eps=1e-05, momentum=0.01, affine=True, track_running_stats=True)
                  )
                )
              )
            )
          )
          (3): Sequential(
            (0): BasicBlock(
              (conv1): Conv2d(512, 512, kernel_size=(3, 3), stride=(1, 1), padding=(1, 1), bias=False)
              (bn1): InstanceNorm2d(512, eps=1e-05, momentum=0.1, affine=False, track_running_stats=False)
              (drop_block): Identity()
              (act1): GELU(approximate='none')
              (aa): Identity()
              (conv2): Conv2d(512, 512, kernel_size=(3, 3), stride=(1, 1), padding=(1, 1), bias=False)
              (bn2): InstanceNorm2d(512, eps=1e-05, momentum=0.1, affine=False, track_running_stats=False)
              (act2): GELU(approximate='none')
              (cbam): CBAM(
                (channel_attention): Channel_Attention(
                  (shared_mlp): Sequential(
                    (0): Flatten(start_dim=1, end_dim=-1)
                    (1): Linear(in_features=512, out_features=32, bias=True)
                    (2): ReLU(inplace=True)
                    (3): Linear(in_features=32, out_features=512, bias=True)
                  )
                )
                (spatial_attention): Spatial_Attention(
                  (compress): ChannelPool()
                  (spatial_attention): Sequential(
                    (0): Conv2d(2, 1, kernel_size=(7, 7), stride=(1, 1), padding=(3, 3), bias=False)
                    (1): BatchNorm2d(1, eps=1e-05, momentum=0.01, affine=True, track_running_stats=True)
                  )
                )
              )
            )
            (1): BasicBlock(
              (conv1): Conv2d(512, 512, kernel_size=(3, 3), stride=(1, 1), padding=(1, 1), bias=False)
              (bn1): InstanceNorm2d(512, eps=1e-05, momentum=0.1, affine=False, track_running_stats=False)
              (drop_block): Identity()
              (act1): GELU(approximate='none')
              (aa): Identity()
              (conv2): Conv2d(512, 512, kernel_size=(3, 3), stride=(1, 1), padding=(1, 1), bias=False)
              (bn2): InstanceNorm2d(512, eps=1e-05, momentum=0.1, affine=False, track_running_stats=False)
              (act2): GELU(approximate='none')
              (cbam): CBAM(
                (channel_attention): Channel_Attention(
                  (shared_mlp): Sequential(
                    (0): Flatten(start_dim=1, end_dim=-1)
                    (1): Linear(in_features=512, out_features=32, bias=True)
                    (2): ReLU(inplace=True)
                    (3): Linear(in_features=32, out_features=512, bias=True)
                  )
                )
                (spatial_attention): Spatial_Attention(
                  (compress): ChannelPool()
                  (spatial_attention): Sequential(
                    (0): Conv2d(2, 1, kernel_size=(7, 7), stride=(1, 1), padding=(3, 3), bias=False)
                    (1): BatchNorm2d(1, eps=1e-05, momentum=0.01, affine=True, track_running_stats=True)
                  )
                )
              )
…
              (cbam): CBAM(
                (channel_attention): Channel_Attention(
                  (shared_mlp): Sequential(
                    (0): Flatten(start_dim=1, end_dim=-1)
                    (1): Linear(in_features=512, out_features=32, bias=True)
                    (2): ReLU(inplace=True)
                    (3): Linear(in_features=32, out_features=512, bias=True)
                  )
                )
                (spatial_attention): Spatial_Attention(
                  (compress): ChannelPool()
                  (spatial_attention): Sequential(
                    (0): Conv2d(2, 1, kernel_size=(7, 7), stride=(1, 1), padding=(3, 3), bias=False)
                    (1): BatchNorm2d(1, eps=1e-05, momentum=0.01, affine=True, track_running_stats=True)
                  )
                )
              )
            )
          )
        )
        (fuse_layers): ModuleList(
          (0): ModuleList(
            (0): Identity()
            (1): Sequential(
              (0): Conv2d(128, 64, kernel_size=(1, 1), stride=(1, 1), bias=False)
              (1): BatchNorm2d(64, eps=1e-05, momentum=0.1, affine=True, track_running_stats=True)
              (2): Upsample(scale_factor=2.0, mode=nearest)
            )
            (2): Sequential(
              (0): Conv2d(256, 64, kernel_size=(1, 1), stride=(1, 1), bias=False)
              (1): BatchNorm2d(64, eps=1e-05, momentum=0.1, affine=True, track_running_stats=True)
              (2): Upsample(scale_factor=4.0, mode=nearest)
            )
            (3): Sequential(
              (0): Conv2d(512, 64, kernel_size=(1, 1), stride=(1, 1), bias=False)
              (1): BatchNorm2d(64, eps=1e-05, momentum=0.1, affine=True, track_running_stats=True)
              (2): Upsample(scale_factor=8.0, mode=nearest)
            )
          )
          (1): ModuleList(
            (0): Sequential(
              (0): Sequential(
                (0): Conv2d(64, 128, kernel_size=(3, 3), stride=(2, 2), padding=(1, 1), bias=False)
                (1): BatchNorm2d(128, eps=1e-05, momentum=0.1, affine=True, track_running_stats=True)
              )
            )
            (1): Identity()
            (2): Sequential(
              (0): Conv2d(256, 128, kernel_size=(1, 1), stride=(1, 1), bias=False)
              (1): BatchNorm2d(128, eps=1e-05, momentum=0.1, affine=True, track_running_stats=True)
              (2): Upsample(scale_factor=2.0, mode=nearest)
            )
            (3): Sequential(
              (0): Conv2d(512, 128, kernel_size=(1, 1), stride=(1, 1), bias=False)
              (1): BatchNorm2d(128, eps=1e-05, momentum=0.1, affine=True, track_running_stats=True)
              (2): Upsample(scale_factor=4.0, mode=nearest)
            )
          )
          (2): ModuleList(
            (0): Sequential(
              (0): Sequential(
                (0): Conv2d(64, 64, kernel_size=(3, 3), stride=(2, 2), padding=(1, 1), bias=False)
                (1): BatchNorm2d(64, eps=1e-05, momentum=0.1, affine=True, track_running_stats=True)
                (2): ReLU()
              )
              (1): Sequential(
                (0): Conv2d(64, 256, kernel_size=(3, 3), stride=(2, 2), padding=(1, 1), bias=False)
                (1): BatchNorm2d(256, eps=1e-05, momentum=0.1, affine=True, track_running_stats=True)
              )
            )
            (1): Sequential(
              (0): Sequential(
                (0): Conv2d(128, 256, kernel_size=(3, 3), stride=(2, 2), padding=(1, 1), bias=False)
                (1): BatchNorm2d(256, eps=1e-05, momentum=0.1, affine=True, track_running_stats=True)
              )
            )
            (2): Identity()
            (3): Sequential(
              (0): Conv2d(512, 256, kernel_size=(1, 1), stride=(1, 1), bias=False)
              (1): BatchNorm2d(256, eps=1e-05, momentum=0.1, affine=True, track_running_stats=True)
              (2): Upsample(scale_factor=2.0, mode=nearest)
            )
          )
          (3): ModuleList(
            (0): Sequential(
              (0): Sequential(
                (0): Conv2d(64, 64, kernel_size=(3, 3), stride=(2, 2), padding=(1, 1), bias=False)
                (1): BatchNorm2d(64, eps=1e-05, momentum=0.1, affine=True, track_running_stats=True)
                (2): ReLU()
              )
              (1): Sequential(
                (0): Conv2d(64, 64, kernel_size=(3, 3), stride=(2, 2), padding=(1, 1), bias=False)
                (1): BatchNorm2d(64, eps=1e-05, momentum=0.1, affine=True, track_running_stats=True)
                (2): ReLU()
              )
              (2): Sequential(
                (0): Conv2d(64, 512, kernel_size=(3, 3), stride=(2, 2), padding=(1, 1), bias=False)
                (1): BatchNorm2d(512, eps=1e-05, momentum=0.1, affine=True, track_running_stats=True)
              )
            )
            (1): Sequential(
              (0): Sequential(
                (0): Conv2d(128, 128, kernel_size=(3, 3), stride=(2, 2), padding=(1, 1), bias=False)
                (1): BatchNorm2d(128, eps=1e-05, momentum=0.1, affine=True, track_running_stats=True)
                (2): ReLU()
              )
              (1): Sequential(
                (0): Conv2d(128, 512, kernel_size=(3, 3), stride=(2, 2), padding=(1, 1), bias=False)
                (1): BatchNorm2d(512, eps=1e-05, momentum=0.1, affine=True, track_running_stats=True)
              )
            )
            (2): Sequential(
              (0): Sequential(
                (0): Conv2d(256, 512, kernel_size=(3, 3), stride=(2, 2), padding=(1, 1), bias=False)
                (1): BatchNorm2d(512, eps=1e-05, momentum=0.1, affine=True, track_running_stats=True)
              )
            )
            (3): Identity()
          )
        )
        (fuse_act): ReLU()
      )
      (2): HighResolutionModule(
        (branches): ModuleList(
          (0): Sequential(
            (0): BasicBlock(
              (conv1): Conv2d(64, 64, kernel_size=(3, 3), stride=(1, 1), padding=(1, 1), bias=False)
              (bn1): InstanceNorm2d(64, eps=1e-05, momentum=0.1, affine=False, track_running_stats=False)
              (drop_block): Identity()
              (act1): GELU(approximate='none')
              (aa): Identity()
              (conv2): Conv2d(64, 64, kernel_size=(3, 3), stride=(1, 1), padding=(1, 1), bias=False)
              (bn2): InstanceNorm2d(64, eps=1e-05, momentum=0.1, affine=False, track_running_stats=False)
              (act2): GELU(approximate='none')
              (cbam): CBAM(
                (channel_attention): Channel_Attention(
                  (shared_mlp): Sequential(
                    (0): Flatten(start_dim=1, end_dim=-1)
                    (1): Linear(in_features=64, out_features=4, bias=True)
                    (2): ReLU(inplace=True)
                    (3): Linear(in_features=4, out_features=64, bias=True)
                  )
                )
                (spatial_attention): Spatial_Attention(
                  (compress): ChannelPool()
                  (spatial_attention): Sequential(
                    (0): Conv2d(2, 1, kernel_size=(7, 7), stride=(1, 1), padding=(3, 3), bias=False)
                    (1): BatchNorm2d(1, eps=1e-05, momentum=0.01, affine=True, track_running_stats=True)
                  )
                )
              )
            )
            (1): BasicBlock(
              (conv1): Conv2d(64, 64, kernel_size=(3, 3), stride=(1, 1), padding=(1, 1), bias=False)
              (bn1): InstanceNorm2d(64, eps=1e-05, momentum=0.1, affine=False, track_running_stats=False)
              (drop_block): Identity()
              (act1): GELU(approximate='none')
              (aa): Identity()
              (conv2): Conv2d(64, 64, kernel_size=(3, 3), stride=(1, 1), padding=(1, 1), bias=False)
              (bn2): InstanceNorm2d(64, eps=1e-05, momentum=0.1, affine=False, track_running_stats=False)
              (act2): GELU(approximate='none')
              (cbam): CBAM(
                (channel_attention): Channel_Attention(
                  (shared_mlp): Sequential(
                    (0): Flatten(start_dim=1, end_dim=-1)
                    (1): Linear(in_features=64, out_features=4, bias=True)
                    (2): ReLU(inplace=True)
                    (3): Linear(in_features=4, out_features=64, bias=True)
                  )
                )
                (spatial_attention): Spatial_Attention(
                  (compress): ChannelPool()
                  (spatial_attention): Sequential(
                    (0): Conv2d(2, 1, kernel_size=(7, 7), stride=(1, 1), padding=(3, 3), bias=False)
                    (1): BatchNorm2d(1, eps=1e-05, momentum=0.01, affine=True, track_running_stats=True)
                  )
                )
              )
            )
            (2): BasicBlock(
              (conv1): Conv2d(64, 64, kernel_size=(3, 3), stride=(1, 1), padding=(1, 1), bias=False)
              (bn1): InstanceNorm2d(64, eps=1e-05, momentum=0.1, affine=False, track_running_stats=False)
              (drop_block): Identity()
              (act1): GELU(approximate='none')
              (aa): Identity()
              (conv2): Conv2d(64, 64, kernel_size=(3, 3), stride=(1, 1), padding=(1, 1), bias=False)
              (bn2): InstanceNorm2d(64, eps=1e-05, momentum=0.1, affine=False, track_running_stats=False)
              (act2): GELU(approximate='none')
              (cbam): CBAM(
                (channel_attention): Channel_Attention(
                  (shared_mlp): Sequential(
                    (0): Flatten(start_dim=1, end_dim=-1)
                    (1): Linear(in_features=64, out_features=4, bias=True)
                    (2): ReLU(inplace=True)
                    (3): Linear(in_features=4, out_features=64, bias=True)
                  )
                )
                (spatial_attention): Spatial_Attention(
                  (compress): ChannelPool()
                  (spatial_attention): Sequential(
                    (0): Conv2d(2, 1, kernel_size=(7, 7), stride=(1, 1), padding=(3, 3), bias=False)
                    (1): BatchNorm2d(1, eps=1e-05, momentum=0.01, affine=True, track_running_stats=True)
                  )
                )
              )
            )
            (3): BasicBlock(
              (conv1): Conv2d(64, 64, kernel_size=(3, 3), stride=(1, 1), padding=(1, 1), bias=False)
              (bn1): InstanceNorm2d(64, eps=1e-05, momentum=0.1, affine=False, track_running_stats=False)
              (drop_block): Identity()
              (act1): GELU(approximate='none')
              (aa): Identity()
              (conv2): Conv2d(64, 64, kernel_size=(3, 3), stride=(1, 1), padding=(1, 1), bias=False)
              (bn2): InstanceNorm2d(64, eps=1e-05, momentum=0.1, affine=False, track_running_stats=False)
              (act2): GELU(approximate='none')
              (cbam): CBAM(
                (channel_attention): Channel_Attention(
                  (shared_mlp): Sequential(
                    (0): Flatten(start_dim=1, end_dim=-1)
                    (1): Linear(in_features=64, out_features=4, bias=True)
                    (2): ReLU(inplace=True)
                    (3): Linear(in_features=4, out_features=64, bias=True)
                  )
                )
                (spatial_attention): Spatial_Attention(
                  (compress): ChannelPool()
                  (spatial_attention): Sequential(
                    (0): Conv2d(2, 1, kernel_size=(7, 7), stride=(1, 1), padding=(3, 3), bias=False)
                    (1): BatchNorm2d(1, eps=1e-05, momentum=0.01, affine=True, track_running_stats=True)
                  )
                )
              )
            )
          )
          (1): Sequential(
            (0): BasicBlock(
              (conv1): Conv2d(128, 128, kernel_size=(3, 3), stride=(1, 1), padding=(1, 1), bias=False)
              (bn1): InstanceNorm2d(128, eps=1e-05, momentum=0.1, affine=False, track_running_stats=False)
              (drop_block): Identity()
              (act1): GELU(approximate='none')
              (aa): Identity()
              (conv2): Conv2d(128, 128, kernel_size=(3, 3), stride=(1, 1), padding=(1, 1), bias=False)
              (bn2): InstanceNorm2d(128, eps=1e-05, momentum=0.1, affine=False, track_running_stats=False)
              (act2): GELU(approximate='none')
              (cbam): CBAM(
                (channel_attention): Channel_Attention(
                  (shared_mlp): Sequential(
                    (0): Flatten(start_dim=1, end_dim=-1)
                    (1): Linear(in_features=128, out_features=8, bias=True)
                    (2): ReLU(inplace=True)
                    (3): Linear(in_features=8, out_features=128, bias=True)
                  )
                )
                (spatial_attention): Spatial_Attention(
                  (compress): ChannelPool()
                  (spatial_attention): Sequential(
                    (0): Conv2d(2, 1, kernel_size=(7, 7), stride=(1, 1), padding=(3, 3), bias=False)
                    (1): BatchNorm2d(1, eps=1e-05, momentum=0.01, affine=True, track_running_stats=True)
                  )
                )
              )
            )
            (1): BasicBlock(
              (conv1): Conv2d(128, 128, kernel_size=(3, 3), stride=(1, 1), padding=(1, 1), bias=False)
              (bn1): InstanceNorm2d(128, eps=1e-05, momentum=0.1, affine=False, track_running_stats=False)
              (drop_block): Identity()
              (act1): GELU(approximate='none')
              (aa): Identity()
              (conv2): Conv2d(128, 128, kernel_size=(3, 3), stride=(1, 1), padding=(1, 1), bias=False)
              (bn2): InstanceNorm2d(128, eps=1e-05, momentum=0.1, affine=False, track_running_stats=False)
              (act2): GELU(approximate='none')
              (cbam): CBAM(
                (channel_attention): Channel_Attention(
                  (shared_mlp): Sequential(
                    (0): Flatten(start_dim=1, end_dim=-1)
                    (1): Linear(in_features=128, out_features=8, bias=True)
                    (2): ReLU(inplace=True)
                    (3): Linear(in_features=8, out_features=128, bias=True)
                  )
                )
                (spatial_attention): Spatial_Attention(
                  (compress): ChannelPool()
                  (spatial_attention): Sequential(
                    (0): Conv2d(2, 1, kernel_size=(7, 7), stride=(1, 1), padding=(3, 3), bias=False)
                    (1): BatchNorm2d(1, eps=1e-05, momentum=0.01, affine=True, track_running_stats=True)
                  )
                )
              )
            )
            (2): BasicBlock(
              (conv1): Conv2d(128, 128, kernel_size=(3, 3), stride=(1, 1), padding=(1, 1), bias=False)
              (bn1): InstanceNorm2d(128, eps=1e-05, momentum=0.1, affine=False, track_running_stats=False)
              (drop_block): Identity()
              (act1): GELU(approximate='none')
              (aa): Identity()
              (conv2): Conv2d(128, 128, kernel_size=(3, 3), stride=(1, 1), padding=(1, 1), bias=False)
              (bn2): InstanceNorm2d(128, eps=1e-05, momentum=0.1, affine=False, track_running_stats=False)
              (act2): GELU(approximate='none')
              (cbam): CBAM(
                (channel_attention): Channel_Attention(
                  (shared_mlp): Sequential(
                    (0): Flatten(start_dim=1, end_dim=-1)
                    (1): Linear(in_features=128, out_features=8, bias=True)
                    (2): ReLU(inplace=True)
                    (3): Linear(in_features=8, out_features=128, bias=True)
                  )
                )
                (spatial_attention): Spatial_Attention(
                  (compress): ChannelPool()
                  (spatial_attention): Sequential(
                    (0): Conv2d(2, 1, kernel_size=(7, 7), stride=(1, 1), padding=(3, 3), bias=False)
                    (1): BatchNorm2d(1, eps=1e-05, momentum=0.01, affine=True, track_running_stats=True)
                  )
                )
              )
            )
            (3): BasicBlock(
              (conv1): Conv2d(128, 128, kernel_size=(3, 3), stride=(1, 1), padding=(1, 1), bias=False)
              (bn1): InstanceNorm2d(128, eps=1e-05, momentum=0.1, affine=False, track_running_stats=False)
              (drop_block): Identity()
              (act1): GELU(approximate='none')
              (aa): Identity()
              (conv2): Conv2d(128, 128, kernel_size=(3, 3), stride=(1, 1), padding=(1, 1), bias=False)
              (bn2): InstanceNorm2d(128, eps=1e-05, momentum=0.1, affine=False, track_running_stats=False)
              (act2): GELU(approximate='none')
              (cbam): CBAM(
                (channel_attention): Channel_Attention(
                  (shared_mlp): Sequential(
                    (0): Flatten(start_dim=1, end_dim=-1)
                    (1): Linear(in_features=128, out_features=8, bias=True)
                    (2): ReLU(inplace=True)
                    (3): Linear(in_features=8, out_features=128, bias=True)
                  )
                )
                (spatial_attention): Spatial_Attention(
                  (compress): ChannelPool()
                  (spatial_attention): Sequential(
                    (0): Conv2d(2, 1, kernel_size=(7, 7), stride=(1, 1), padding=(3, 3), bias=False)
                    (1): BatchNorm2d(1, eps=1e-05, momentum=0.01, affine=True, track_running_stats=True)
                  )
                )
              )
            )
          )
          (2): Sequential(
            (0): BasicBlock(
              (conv1): Conv2d(256, 256, kernel_size=(3, 3), stride=(1, 1), padding=(1, 1), bias=False)
              (bn1): InstanceNorm2d(256, eps=1e-05, momentum=0.1, affine=False, track_running_stats=False)
              (drop_block): Identity()
              (act1): GELU(approximate='none')
              (aa): Identity()
              (conv2): Conv2d(256, 256, kernel_size=(3, 3), stride=(1, 1), padding=(1, 1), bias=False)
              (bn2): InstanceNorm2d(256, eps=1e-05, momentum=0.1, affine=False, track_running_stats=False)
              (act2): GELU(approximate='none')
              (cbam): CBAM(
                (channel_attention): Channel_Attention(
                  (shared_mlp): Sequential(
                    (0): Flatten(start_dim=1, end_dim=-1)
                    (1): Linear(in_features=256, out_features=16, bias=True)
                    (2): ReLU(inplace=True)
                    (3): Linear(in_features=16, out_features=256, bias=True)
                  )
                )
                (spatial_attention): Spatial_Attention(
                  (compress): ChannelPool()
                  (spatial_attention): Sequential(
                    (0): Conv2d(2, 1, kernel_size=(7, 7), stride=(1, 1), padding=(3, 3), bias=False)
                    (1): BatchNorm2d(1, eps=1e-05, momentum=0.01, affine=True, track_running_stats=True)
                  )
                )
              )
            )
            (1): BasicBlock(
              (conv1): Conv2d(256, 256, kernel_size=(3, 3), stride=(1, 1), padding=(1, 1), bias=False)
              (bn1): InstanceNorm2d(256, eps=1e-05, momentum=0.1, affine=False, track_running_stats=False)
              (drop_block): Identity()
              (act1): GELU(approximate='none')
              (aa): Identity()
              (conv2): Conv2d(256, 256, kernel_size=(3, 3), stride=(1, 1), padding=(1, 1), bias=False)
              (bn2): InstanceNorm2d(256, eps=1e-05, momentum=0.1, affine=False, track_running_stats=False)
              (act2): GELU(approximate='none')
              (cbam): CBAM(
                (channel_attention): Channel_Attention(
                  (shared_mlp): Sequential(
                    (0): Flatten(start_dim=1, end_dim=-1)
                    (1): Linear(in_features=256, out_features=16, bias=True)
                    (2): ReLU(inplace=True)
                    (3): Linear(in_features=16, out_features=256, bias=True)
                  )
                )
                (spatial_attention): Spatial_Attention(
                  (compress): ChannelPool()
                  (spatial_attention): Sequential(
                    (0): Conv2d(2, 1, kernel_size=(7, 7), stride=(1, 1), padding=(3, 3), bias=False)
                    (1): BatchNorm2d(1, eps=1e-05, momentum=0.01, affine=True, track_running_stats=True)
                  )
                )
              )
            )
            (2): BasicBlock(
              (conv1): Conv2d(256, 256, kernel_size=(3, 3), stride=(1, 1), padding=(1, 1), bias=False)
              (bn1): InstanceNorm2d(256, eps=1e-05, momentum=0.1, affine=False, track_running_stats=False)
              (drop_block): Identity()
              (act1): GELU(approximate='none')
              (aa): Identity()
              (conv2): Conv2d(256, 256, kernel_size=(3, 3), stride=(1, 1), padding=(1, 1), bias=False)
              (bn2): InstanceNorm2d(256, eps=1e-05, momentum=0.1, affine=False, track_running_stats=False)
              (act2): GELU(approximate='none')
              (cbam): CBAM(
                (channel_attention): Channel_Attention(
                  (shared_mlp): Sequential(
                    (0): Flatten(start_dim=1, end_dim=-1)
                    (1): Linear(in_features=256, out_features=16, bias=True)
                    (2): ReLU(inplace=True)
                    (3): Linear(in_features=16, out_features=256, bias=True)
                  )
                )
                (spatial_attention): Spatial_Attention(
                  (compress): ChannelPool()
                  (spatial_attention): Sequential(
                    (0): Conv2d(2, 1, kernel_size=(7, 7), stride=(1, 1), padding=(3, 3), bias=False)
                    (1): BatchNorm2d(1, eps=1e-05, momentum=0.01, affine=True, track_running_stats=True)
                  )
                )
              )
            )
            (3): BasicBlock(
              (conv1): Conv2d(256, 256, kernel_size=(3, 3), stride=(1, 1), padding=(1, 1), bias=False)
              (bn1): InstanceNorm2d(256, eps=1e-05, momentum=0.1, affine=False, track_running_stats=False)
              (drop_block): Identity()
              (act1): GELU(approximate='none')
              (aa): Identity()
              (conv2): Conv2d(256, 256, kernel_size=(3, 3), stride=(1, 1), padding=(1, 1), bias=False)
              (bn2): InstanceNorm2d(256, eps=1e-05, momentum=0.1, affine=False, track_running_stats=False)
              (act2): GELU(approximate='none')
              (cbam): CBAM(
                (channel_attention): Channel_Attention(
                  (shared_mlp): Sequential(
                    (0): Flatten(start_dim=1, end_dim=-1)
                    (1): Linear(in_features=256, out_features=16, bias=True)
                    (2): ReLU(inplace=True)
                    (3): Linear(in_features=16, out_features=256, bias=True)
                  )
                )
                (spatial_attention): Spatial_Attention(
                  (compress): ChannelPool()
                  (spatial_attention): Sequential(
                    (0): Conv2d(2, 1, kernel_size=(7, 7), stride=(1, 1), padding=(3, 3), bias=False)
                    (1): BatchNorm2d(1, eps=1e-05, momentum=0.01, affine=True, track_running_stats=True)
                  )
                )
              )
            )
          )
          (3): Sequential(
            (0): BasicBlock(
              (conv1): Conv2d(512, 512, kernel_size=(3, 3), stride=(1, 1), padding=(1, 1), bias=False)
              (bn1): InstanceNorm2d(512, eps=1e-05, momentum=0.1, affine=False, track_running_stats=False)
              (drop_block): Identity()
              (act1): GELU(approximate='none')
              (aa): Identity()
              (conv2): Conv2d(512, 512, kernel_size=(3, 3), stride=(1, 1), padding=(1, 1), bias=False)
              (bn2): InstanceNorm2d(512, eps=1e-05, momentum=0.1, affine=False, track_running_stats=False)
              (act2): GELU(approximate='none')
              (cbam): CBAM(
                (channel_attention): Channel_Attention(
                  (shared_mlp): Sequential(
                    (0): Flatten(start_dim=1, end_dim=-1)
                    (1): Linear(in_features=512, out_features=32, bias=True)
                    (2): ReLU(inplace=True)
                    (3): Linear(in_features=32, out_features=512, bias=True)
                  )
                )
                (spatial_attention): Spatial_Attention(
                  (compress): ChannelPool()
                  (spatial_attention): Sequential(
                    (0): Conv2d(2, 1, kernel_size=(7, 7), stride=(1, 1), padding=(3, 3), bias=False)
                    (1): BatchNorm2d(1, eps=1e-05, momentum=0.01, affine=True, track_running_stats=True)
                  )
                )
              )
            )
            (1): BasicBlock(
              (conv1): Conv2d(512, 512, kernel_size=(3, 3), stride=(1, 1), padding=(1, 1), bias=False)
              (bn1): InstanceNorm2d(512, eps=1e-05, momentum=0.1, affine=False, track_running_stats=False)
              (drop_block): Identity()
              (act1): GELU(approximate='none')
              (aa): Identity()
              (conv2): Conv2d(512, 512, kernel_size=(3, 3), stride=(1, 1), padding=(1, 1), bias=False)
              (bn2): InstanceNorm2d(512, eps=1e-05, momentum=0.1, affine=False, track_running_stats=False)
              (act2): GELU(approximate='none')
              (cbam): CBAM(
                (channel_attention): Channel_Attention(
                  (shared_mlp): Sequential(
                    (0): Flatten(start_dim=1, end_dim=-1)
                    (1): Linear(in_features=512, out_features=32, bias=True)
                    (2): ReLU(inplace=True)
                    (3): Linear(in_features=32, out_features=512, bias=True)
                  )
                )
                (spatial_attention): Spatial_Attention(
                  (compress): ChannelPool()
                  (spatial_attention): Sequential(
                    (0): Conv2d(2, 1, kernel_size=(7, 7), stride=(1, 1), padding=(3, 3), bias=False)
                    (1): BatchNorm2d(1, eps=1e-05, momentum=0.01, affine=True, track_running_stats=True)
                  )
                )
              )
            )
            (2): BasicBlock(
              (conv1): Conv2d(512, 512, kernel_size=(3, 3), stride=(1, 1), padding=(1, 1), bias=False)
              (bn1): InstanceNorm2d(512, eps=1e-05, momentum=0.1, affine=False, track_running_stats=False)
              (drop_block): Identity()
              (act1): GELU(approximate='none')
              (aa): Identity()
              (conv2): Conv2d(512, 512, kernel_size=(3, 3), stride=(1, 1), padding=(1, 1), bias=False)
              (bn2): InstanceNorm2d(512, eps=1e-05, momentum=0.1, affine=False, track_running_stats=False)
              (act2): GELU(approximate='none')
              (cbam): CBAM(
                (channel_attention): Channel_Attention(
                  (shared_mlp): Sequential(
                    (0): Flatten(start_dim=1, end_dim=-1)
                    (1): Linear(in_features=512, out_features=32, bias=True)
                    (2): ReLU(inplace=True)
                    (3): Linear(in_features=32, out_features=512, bias=True)
                  )
                )
                (spatial_attention): Spatial_Attention(
                  (compress): ChannelPool()
                  (spatial_attention): Sequential(
                    (0): Conv2d(2, 1, kernel_size=(7, 7), stride=(1, 1), padding=(3, 3), bias=False)
                    (1): BatchNorm2d(1, eps=1e-05, momentum=0.01, affine=True, track_running_stats=True)
                  )
                )
              )
            )
            (3): BasicBlock(
              (conv1): Conv2d(512, 512, kernel_size=(3, 3), stride=(1, 1), padding=(1, 1), bias=False)
              (bn1): InstanceNorm2d(512, eps=1e-05, momentum=0.1, affine=False, track_running_stats=False)
              (drop_block): Identity()
              (act1): GELU(approximate='none')
              (aa): Identity()
              (conv2): Conv2d(512, 512, kernel_size=(3, 3), stride=(1, 1), padding=(1, 1), bias=False)
              (bn2): InstanceNorm2d(512, eps=1e-05, momentum=0.1, affine=False, track_running_stats=False)
              (act2): GELU(approximate='none')
              (cbam): CBAM(
                (channel_attention): Channel_Attention(
                  (shared_mlp): Sequential(
                    (0): Flatten(start_dim=1, end_dim=-1)
                    (1): Linear(in_features=512, out_features=32, bias=True)
                    (2): ReLU(inplace=True)
                    (3): Linear(in_features=32, out_features=512, bias=True)
                  )
                )
                (spatial_attention): Spatial_Attention(
                  (compress): ChannelPool()
                  (spatial_attention): Sequential(
                    (0): Conv2d(2, 1, kernel_size=(7, 7), stride=(1, 1), padding=(3, 3), bias=False)
                    (1): BatchNorm2d(1, eps=1e-05, momentum=0.01, affine=True, track_running_stats=True)
                  )
                )
              )
            )
          )
        )
        (fuse_layers): ModuleList(
          (0): ModuleList(
            (0): Identity()
            (1): Sequential(
              (0): Conv2d(128, 64, kernel_size=(1, 1), stride=(1, 1), bias=False)
              (1): BatchNorm2d(64, eps=1e-05, momentum=0.1, affine=True, track_running_stats=True)
              (2): Upsample(scale_factor=2.0, mode=nearest)
            )
            (2): Sequential(
              (0): Conv2d(256, 64, kernel_size=(1, 1), stride=(1, 1), bias=False)
              (1): BatchNorm2d(64, eps=1e-05, momentum=0.1, affine=True, track_running_stats=True)
              (2): Upsample(scale_factor=4.0, mode=nearest)
            )
            (3): Sequential(
              (0): Conv2d(512, 64, kernel_size=(1, 1), stride=(1, 1), bias=False)
              (1): BatchNorm2d(64, eps=1e-05, momentum=0.1, affine=True, track_running_stats=True)
              (2): Upsample(scale_factor=8.0, mode=nearest)
            )
          )
          (1): ModuleList(
            (0): Sequential(
              (0): Sequential(
                (0): Conv2d(64, 128, kernel_size=(3, 3), stride=(2, 2), padding=(1, 1), bias=False)
                (1): BatchNorm2d(128, eps=1e-05, momentum=0.1, affine=True, track_running_stats=True)
              )
            )
            (1): Identity()
            (2): Sequential(
              (0): Conv2d(256, 128, kernel_size=(1, 1), stride=(1, 1), bias=False)
              (1): BatchNorm2d(128, eps=1e-05, momentum=0.1, affine=True, track_running_stats=True)
              (2): Upsample(scale_factor=2.0, mode=nearest)
            )
            (3): Sequential(
              (0): Conv2d(512, 128, kernel_size=(1, 1), stride=(1, 1), bias=False)
              (1): BatchNorm2d(128, eps=1e-05, momentum=0.1, affine=True, track_running_stats=True)
              (2): Upsample(scale_factor=4.0, mode=nearest)
            )
          )
          (2): ModuleList(
            (0): Sequential(
              (0): Sequential(
                (0): Conv2d(64, 64, kernel_size=(3, 3), stride=(2, 2), padding=(1, 1), bias=False)
                (1): BatchNorm2d(64, eps=1e-05, momentum=0.1, affine=True, track_running_stats=True)
                (2): ReLU()
              )
              (1): Sequential(
                (0): Conv2d(64, 256, kernel_size=(3, 3), stride=(2, 2), padding=(1, 1), bias=False)
                (1): BatchNorm2d(256, eps=1e-05, momentum=0.1, affine=True, track_running_stats=True)
              )
            )
            (1): Sequential(
              (0): Sequential(
                (0): Conv2d(128, 256, kernel_size=(3, 3), stride=(2, 2), padding=(1, 1), bias=False)
                (1): BatchNorm2d(256, eps=1e-05, momentum=0.1, affine=True, track_running_stats=True)
              )
            )
            (2): Identity()
            (3): Sequential(
              (0): Conv2d(512, 256, kernel_size=(1, 1), stride=(1, 1), bias=False)
              (1): BatchNorm2d(256, eps=1e-05, momentum=0.1, affine=True, track_running_stats=True)
              (2): Upsample(scale_factor=2.0, mode=nearest)
            )
          )
          (3): ModuleList(
            (0): Sequential(
              (0): Sequential(
                (0): Conv2d(64, 64, kernel_size=(3, 3), stride=(2, 2), padding=(1, 1), bias=False)
                (1): BatchNorm2d(64, eps=1e-05, momentum=0.1, affine=True, track_running_stats=True)
                (2): ReLU()
              )
              (1): Sequential(
                (0): Conv2d(64, 64, kernel_size=(3, 3), stride=(2, 2), padding=(1, 1), bias=False)
                (1): BatchNorm2d(64, eps=1e-05, momentum=0.1, affine=True, track_running_stats=True)
                (2): ReLU()
              )
              (2): Sequential(
                (0): Conv2d(64, 512, kernel_size=(3, 3), stride=(2, 2), padding=(1, 1), bias=False)
                (1): BatchNorm2d(512, eps=1e-05, momentum=0.1, affine=True, track_running_stats=True)
              )
            )
            (1): Sequential(
              (0): Sequential(
                (0): Conv2d(128, 128, kernel_size=(3, 3), stride=(2, 2), padding=(1, 1), bias=False)
                (1): BatchNorm2d(128, eps=1e-05, momentum=0.1, affine=True, track_running_stats=True)
                (2): ReLU()
              )
              (1): Sequential(
                (0): Conv2d(128, 512, kernel_size=(3, 3), stride=(2, 2), padding=(1, 1), bias=False)
                (1): BatchNorm2d(512, eps=1e-05, momentum=0.1, affine=True, track_running_stats=True)
              )
            )
            (2): Sequential(
              (0): Sequential(
                (0): Conv2d(256, 512, kernel_size=(3, 3), stride=(2, 2), padding=(1, 1), bias=False)
                (1): BatchNorm2d(512, eps=1e-05, momentum=0.1, affine=True, track_running_stats=True)
              )
            )
            (3): Identity()
          )
        )
        (fuse_act): ReLU()
      )
    )
    (incre_modules): ModuleList(
      (0): Sequential(
        (0): Bottleneck(
          (conv1): Conv2d(64, 32, kernel_size=(1, 1), stride=(1, 1), bias=False)
          (bn1): InstanceNorm2d(32, eps=1e-05, momentum=0.1, affine=False, track_running_stats=False)
          (act1): GELU(approximate='none')
          (conv2): Conv2d(32, 32, kernel_size=(3, 3), stride=(1, 1), padding=(1, 1), bias=False)
          (bn2): InstanceNorm2d(32, eps=1e-05, momentum=0.1, affine=False, track_running_stats=False)
          (drop_block): Identity()
          (act2): GELU(approximate='none')
          (aa): Identity()
          (conv3): Conv2d(32, 128, kernel_size=(1, 1), stride=(1, 1), bias=False)
          (bn3): InstanceNorm2d(128, eps=1e-05, momentum=0.1, affine=False, track_running_stats=False)
          (act3): GELU(approximate='none')
          (downsample): Sequential(
            (0): Conv2d(64, 128, kernel_size=(1, 1), stride=(1, 1), bias=False)
            (1): BatchNorm2d(128, eps=1e-05, momentum=0.1, affine=True, track_running_stats=True)
          )
          (cbam): CBAM(
            (channel_attention): Channel_Attention(
              (shared_mlp): Sequential(
                (0): Flatten(start_dim=1, end_dim=-1)
                (1): Linear(in_features=128, out_features=8, bias=True)
                (2): ReLU(inplace=True)
                (3): Linear(in_features=8, out_features=128, bias=True)
              )
            )
            (spatial_attention): Spatial_Attention(
              (compress): ChannelPool()
              (spatial_attention): Sequential(
                (0): Conv2d(2, 1, kernel_size=(7, 7), stride=(1, 1), padding=(3, 3), bias=False)
                (1): BatchNorm2d(1, eps=1e-05, momentum=0.01, affine=True, track_running_stats=True)
              )
            )
          )
        )
      )
      (1): Sequential(
        (0): Bottleneck(
          (conv1): Conv2d(128, 64, kernel_size=(1, 1), stride=(1, 1), bias=False)
          (bn1): InstanceNorm2d(64, eps=1e-05, momentum=0.1, affine=False, track_running_stats=False)
          (act1): GELU(approximate='none')
          (conv2): Conv2d(64, 64, kernel_size=(3, 3), stride=(1, 1), padding=(1, 1), bias=False)
          (bn2): InstanceNorm2d(64, eps=1e-05, momentum=0.1, affine=False, track_running_stats=False)
          (drop_block): Identity()
          (act2): GELU(approximate='none')
          (aa): Identity()
          (conv3): Conv2d(64, 256, kernel_size=(1, 1), stride=(1, 1), bias=False)
          (bn3): InstanceNorm2d(256, eps=1e-05, momentum=0.1, affine=False, track_running_stats=False)
          (act3): GELU(approximate='none')
          (downsample): Sequential(
            (0): Conv2d(128, 256, kernel_size=(1, 1), stride=(1, 1), bias=False)
            (1): BatchNorm2d(256, eps=1e-05, momentum=0.1, affine=True, track_running_stats=True)
          )
          (cbam): CBAM(
            (channel_attention): Channel_Attention(
              (shared_mlp): Sequential(
                (0): Flatten(start_dim=1, end_dim=-1)
                (1): Linear(in_features=256, out_features=16, bias=True)
                (2): ReLU(inplace=True)
                (3): Linear(in_features=16, out_features=256, bias=True)
              )
            )
            (spatial_attention): Spatial_Attention(
              (compress): ChannelPool()
              (spatial_attention): Sequential(
                (0): Conv2d(2, 1, kernel_size=(7, 7), stride=(1, 1), padding=(3, 3), bias=False)
                (1): BatchNorm2d(1, eps=1e-05, momentum=0.01, affine=True, track_running_stats=True)
              )
            )
          )
        )
      )
      (2): Sequential(
        (0): Bottleneck(
          (conv1): Conv2d(256, 128, kernel_size=(1, 1), stride=(1, 1), bias=False)
          (bn1): InstanceNorm2d(128, eps=1e-05, momentum=0.1, affine=False, track_running_stats=False)
          (act1): GELU(approximate='none')
          (conv2): Conv2d(128, 128, kernel_size=(3, 3), stride=(1, 1), padding=(1, 1), bias=False)
          (bn2): InstanceNorm2d(128, eps=1e-05, momentum=0.1, affine=False, track_running_stats=False)
          (drop_block): Identity()
          (act2): GELU(approximate='none')
          (aa): Identity()
          (conv3): Conv2d(128, 512, kernel_size=(1, 1), stride=(1, 1), bias=False)
          (bn3): InstanceNorm2d(512, eps=1e-05, momentum=0.1, affine=False, track_running_stats=False)
          (act3): GELU(approximate='none')
          (downsample): Sequential(
            (0): Conv2d(256, 512, kernel_size=(1, 1), stride=(1, 1), bias=False)
            (1): BatchNorm2d(512, eps=1e-05, momentum=0.1, affine=True, track_running_stats=True)
          )
          (cbam): CBAM(
            (channel_attention): Channel_Attention(
              (shared_mlp): Sequential(
                (0): Flatten(start_dim=1, end_dim=-1)
                (1): Linear(in_features=512, out_features=32, bias=True)
                (2): ReLU(inplace=True)
                (3): Linear(in_features=32, out_features=512, bias=True)
              )
            )
            (spatial_attention): Spatial_Attention(
              (compress): ChannelPool()
              (spatial_attention): Sequential(
                (0): Conv2d(2, 1, kernel_size=(7, 7), stride=(1, 1), padding=(3, 3), bias=False)
                (1): BatchNorm2d(1, eps=1e-05, momentum=0.01, affine=True, track_running_stats=True)
              )
            )
          )
        )
      )
      (3): Sequential(
        (0): Bottleneck(
          (conv1): Conv2d(512, 256, kernel_size=(1, 1), stride=(1, 1), bias=False)
          (bn1): InstanceNorm2d(256, eps=1e-05, momentum=0.1, affine=False, track_running_stats=False)
          (act1): GELU(approximate='none')
          (conv2): Conv2d(256, 256, kernel_size=(3, 3), stride=(1, 1), padding=(1, 1), bias=False)
          (bn2): InstanceNorm2d(256, eps=1e-05, momentum=0.1, affine=False, track_running_stats=False)
          (drop_block): Identity()
          (act2): GELU(approximate='none')
          (aa): Identity()
          (conv3): Conv2d(256, 1024, kernel_size=(1, 1), stride=(1, 1), bias=False)
          (bn3): InstanceNorm2d(1024, eps=1e-05, momentum=0.1, affine=False, track_running_stats=False)
          (act3): GELU(approximate='none')
          (downsample): Sequential(
            (0): Conv2d(512, 1024, kernel_size=(1, 1), stride=(1, 1), bias=False)
            (1): BatchNorm2d(1024, eps=1e-05, momentum=0.1, affine=True, track_running_stats=True)
          )
          (cbam): CBAM(
            (channel_attention): Channel_Attention(
              (shared_mlp): Sequential(
                (0): Flatten(start_dim=1, end_dim=-1)
                (1): Linear(in_features=1024, out_features=64, bias=True)
                (2): ReLU(inplace=True)
                (3): Linear(in_features=64, out_features=1024, bias=True)
              )
            )
            (spatial_attention): Spatial_Attention(
              (compress): ChannelPool()
              (spatial_attention): Sequential(
                (0): Conv2d(2, 1, kernel_size=(7, 7), stride=(1, 1), padding=(3, 3), bias=False)
                (1): BatchNorm2d(1, eps=1e-05, momentum=0.01, affine=True, track_running_stats=True)
              )
            )
          )
        )
      )
    )
  )
  (decoder): UnetPlusPlusDecoder(
    (center): Identity()
    (blocks): ModuleDict(
      (x_0_0): DecoderBlock(
        (conv1): Conv2dReLU(
          (0): Conv2d(1536, 256, kernel_size=(3, 3), stride=(1, 1), padding=(1, 1), bias=False)
          (1): BatchNorm2d(256, eps=1e-05, momentum=0.1, affine=True, track_running_stats=True)
          (2): ReLU(inplace=True)
        )
        (attention1): Attention(
          (attention): Identity()
        )
        (conv2): Conv2dReLU(
          (0): Conv2d(256, 256, kernel_size=(3, 3), stride=(1, 1), padding=(1, 1), bias=False)
          (1): BatchNorm2d(256, eps=1e-05, momentum=0.1, affine=True, track_running_stats=True)
          (2): ReLU(inplace=True)
        )
        (attention2): Attention(
          (attention): Identity()
        )
      )
      (x_0_1): DecoderBlock(
        (conv1): Conv2dReLU(
          (0): Conv2d(768, 128, kernel_size=(3, 3), stride=(1, 1), padding=(1, 1), bias=False)
          (1): BatchNorm2d(128, eps=1e-05, momentum=0.1, affine=True, track_running_stats=True)
          (2): ReLU(inplace=True)
        )
        (attention1): Attention(
          (attention): Identity()
        )
        (conv2): Conv2dReLU(
          (0): Conv2d(128, 128, kernel_size=(3, 3), stride=(1, 1), padding=(1, 1), bias=False)
          (1): BatchNorm2d(128, eps=1e-05, momentum=0.1, affine=True, track_running_stats=True)
          (2): ReLU(inplace=True)
        )
        (attention2): Attention(
          (attention): Identity()
        )
      )
      (x_1_1): DecoderBlock(
        (conv1): Conv2dReLU(
          (0): Conv2d(768, 256, kernel_size=(3, 3), stride=(1, 1), padding=(1, 1), bias=False)
          (1): BatchNorm2d(256, eps=1e-05, momentum=0.1, affine=True, track_running_stats=True)
          (2): ReLU(inplace=True)
        )
        (attention1): Attention(
          (attention): Identity()
        )
        (conv2): Conv2dReLU(
          (0): Conv2d(256, 256, kernel_size=(3, 3), stride=(1, 1), padding=(1, 1), bias=False)
          (1): BatchNorm2d(256, eps=1e-05, momentum=0.1, affine=True, track_running_stats=True)
          (2): ReLU(inplace=True)
        )
        (attention2): Attention(
          (attention): Identity()
        )
      )
      (x_0_2): DecoderBlock(
        (conv1): Conv2dReLU(
          (0): Conv2d(512, 64, kernel_size=(3, 3), stride=(1, 1), padding=(1, 1), bias=False)
          (1): BatchNorm2d(64, eps=1e-05, momentum=0.1, affine=True, track_running_stats=True)
          (2): ReLU(inplace=True)
        )
        (attention1): Attention(
          (attention): Identity()
        )
        (conv2): Conv2dReLU(
          (0): Conv2d(64, 64, kernel_size=(3, 3), stride=(1, 1), padding=(1, 1), bias=False)
          (1): BatchNorm2d(64, eps=1e-05, momentum=0.1, affine=True, track_running_stats=True)
          (2): ReLU(inplace=True)
        )
        (attention2): Attention(
          (attention): Identity()
        )
      )
      (x_1_2): DecoderBlock(
        (conv1): Conv2dReLU(
          (0): Conv2d(512, 128, kernel_size=(3, 3), stride=(1, 1), padding=(1, 1), bias=False)
          (1): BatchNorm2d(128, eps=1e-05, momentum=0.1, affine=True, track_running_stats=True)
          (2): ReLU(inplace=True)
        )
        (attention1): Attention(
          (attention): Identity()
        )
        (conv2): Conv2dReLU(
          (0): Conv2d(128, 128, kernel_size=(3, 3), stride=(1, 1), padding=(1, 1), bias=False)
          (1): BatchNorm2d(128, eps=1e-05, momentum=0.1, affine=True, track_running_stats=True)
          (2): ReLU(inplace=True)
        )
        (attention2): Attention(
          (attention): Identity()
        )
      )
      (x_2_2): DecoderBlock(
        (conv1): Conv2dReLU(
          (0): Conv2d(384, 128, kernel_size=(3, 3), stride=(1, 1), padding=(1, 1), bias=False)
          (1): BatchNorm2d(128, eps=1e-05, momentum=0.1, affine=True, track_running_stats=True)
          (2): ReLU(inplace=True)
        )
        (attention1): Attention(
          (attention): Identity()
        )
        (conv2): Conv2dReLU(
          (0): Conv2d(128, 128, kernel_size=(3, 3), stride=(1, 1), padding=(1, 1), bias=False)
          (1): BatchNorm2d(128, eps=1e-05, momentum=0.1, affine=True, track_running_stats=True)
          (2): ReLU(inplace=True)
        )
        (attention2): Attention(
          (attention): Identity()
        )
      )
      (x_0_3): DecoderBlock(
        (conv1): Conv2dReLU(
          (0): Conv2d(320, 32, kernel_size=(3, 3), stride=(1, 1), padding=(1, 1), bias=False)
          (1): BatchNorm2d(32, eps=1e-05, momentum=0.1, affine=True, track_running_stats=True)
          (2): ReLU(inplace=True)
        )
        (attention1): Attention(
          (attention): Identity()
        )
        (conv2): Conv2dReLU(
          (0): Conv2d(32, 32, kernel_size=(3, 3), stride=(1, 1), padding=(1, 1), bias=False)
          (1): BatchNorm2d(32, eps=1e-05, momentum=0.1, affine=True, track_running_stats=True)
          (2): ReLU(inplace=True)
        )
        (attention2): Attention(
          (attention): Identity()
        )
      )
      (x_1_3): DecoderBlock(
        (conv1): Conv2dReLU(
          (0): Conv2d(320, 64, kernel_size=(3, 3), stride=(1, 1), padding=(1, 1), bias=False)
          (1): BatchNorm2d(64, eps=1e-05, momentum=0.1, affine=True, track_running_stats=True)
          (2): ReLU(inplace=True)
        )
        (attention1): Attention(
          (attention): Identity()
        )
        (conv2): Conv2dReLU(
          (0): Conv2d(64, 64, kernel_size=(3, 3), stride=(1, 1), padding=(1, 1), bias=False)
          (1): BatchNorm2d(64, eps=1e-05, momentum=0.1, affine=True, track_running_stats=True)
          (2): ReLU(inplace=True)
        )
        (attention2): Attention(
          (attention): Identity()
        )
      )
      (x_2_3): DecoderBlock(
        (conv1): Conv2dReLU(
          (0): Conv2d(256, 64, kernel_size=(3, 3), stride=(1, 1), padding=(1, 1), bias=False)
          (1): BatchNorm2d(64, eps=1e-05, momentum=0.1, affine=True, track_running_stats=True)
          (2): ReLU(inplace=True)
        )
        (attention1): Attention(
          (attention): Identity()
        )
        (conv2): Conv2dReLU(
          (0): Conv2d(64, 64, kernel_size=(3, 3), stride=(1, 1), padding=(1, 1), bias=False)
          (1): BatchNorm2d(64, eps=1e-05, momentum=0.1, affine=True, track_running_stats=True)
          (2): ReLU(inplace=True)
        )
        (attention2): Attention(
          (attention): Identity()
        )
      )
      (x_3_3): DecoderBlock(
        (conv1): Conv2dReLU(
          (0): Conv2d(192, 64, kernel_size=(3, 3), stride=(1, 1), padding=(1, 1), bias=False)
          (1): BatchNorm2d(64, eps=1e-05, momentum=0.1, affine=True, track_running_stats=True)
          (2): ReLU(inplace=True)
        )
        (attention1): Attention(
          (attention): Identity()
        )
        (conv2): Conv2dReLU(
          (0): Conv2d(64, 64, kernel_size=(3, 3), stride=(1, 1), padding=(1, 1), bias=False)
          (1): BatchNorm2d(64, eps=1e-05, momentum=0.1, affine=True, track_running_stats=True)
          (2): ReLU(inplace=True)
        )
        (attention2): Attention(
          (attention): Identity()
        )
      )
      (x_0_4): DecoderBlock(
        (conv1): Conv2dReLU(
          (0): Conv2d(32, 16, kernel_size=(3, 3), stride=(1, 1), padding=(1, 1), bias=False)
          (1): BatchNorm2d(16, eps=1e-05, momentum=0.1, affine=True, track_running_stats=True)
          (2): ReLU(inplace=True)
        )
        (attention1): Attention(
          (attention): Identity()
        )
        (conv2): Conv2dReLU(
          (0): Conv2d(16, 16, kernel_size=(3, 3), stride=(1, 1), padding=(1, 1), bias=False)
          (1): BatchNorm2d(16, eps=1e-05, momentum=0.1, affine=True, track_running_stats=True)
          (2): ReLU(inplace=True)
        )
        (attention2): Attention(
          (attention): Identity()
        )
      )
    )
  )
  (segmentation_head): SegmentationHead(
    (0): Conv2d(16, 2, kernel_size=(3, 3), stride=(1, 1), padding=(1, 1))
    (1): Identity()
    (2): Activation(
      (activation): Identity()
    )
  )
)
Number of train batches: tensor(26)
Number of val batches: tensor(6)
Adjusting learning rate of group 0 to 1.0000e-03.
Sanity Checking: 0it [00:00, ?it/s]Sanity Checking:   0%|          | 0/2 [00:00<?, ?it/s]Sanity Checking DataLoader 0:   0%|          | 
…
